checkpoint_actor1.pth (torch_old, 524627 bytes, 6 tensors)

fc1.weight f4 [400, 24]
00000000: a665 473c 7efb bcbc 3508 c3bb f076 2bbd
00000010: 4dc0 23bd c1f8 4bbd a5f5 703d cdf5 4abd
00000020: 746c 423d 7c2a 3fbc 2f83 1a3d 2a9d 75b9
00000030: 9e47 06bc 82af 51bd b644 0cbc a917 9c3b
00000040: 486e 5b3c 1923 c03b b8ab 023d 1153 db3b
00000050: f2aa 4bbd 12e9 62bd 7b0f b43c 8ec2 89bc
00000060: d523 2fbc ef9a 26bc 7ec6 933b 71bd 41bd
00000070: 2f72 0d3c 56b0 0dbd 9958 b43c 7988 c0bd
00000080: 7edf 78bc 00f1 653d c0cc d63d 2865 a9bb
00000090: b7cc 1fbd 7915 f63c bc1d 023d 4ef1 cabc
000000a0: 7416 84bc b1e0 503c 9a19 0ebd eed9 063c
000000b0: 1949 7a3d 864e 3a3d 017a 2a3d c9cc 243c
000000c0: 4392 acbb 35c4 02bd f5c3 763d c16d a7bd
000000d0: 7e7b cebb b94c 043c ca58 f43c 4e20 25bd
000000e0: 71a0 d53b e494 d2bc 5066 353c a483 96bd
000000f0: 37aa a9bc 347c 8e3d 4fa7 b4bc 61b0 48bd
00000100: bfc0 37bd d551 c3bb 844a 533d 1cdf db3d
00000110: 2e0a eabc 35d6 c33d 74fa 763b 9974 fc3c
00000120: 5f21 94bd 69e3 bfbd bf41 82bd 608f f83d
00000130: 626b 793d 2be6 f83c 1764 9ebd 8a8b c23d
00000140: a104 26bc 750f 96bd 5f04 20bc 48d2 b53d
00000150: 8ba3 80bb 07f1 9ebb 94da 7fbd 0351 933d
00000160: 1d20 8fbd 1d6a 603b 70a1 72bc 83d7 61bd
00000170: acc4 d0bc 8ff8 b1bd 81f0 80bd 8f77 cd3c
00000180: 22ec 11bd eea2 413d 114e 4b3d a48e 823b
00000190: 9ee1 8e3c c362 d6bb 3553 533d 1a23 ecbc
000001a0: fc7e ad3c 10c7 313c 3e8f c13c 218f cebc
000001b0: 5bbd 0b3d bc80 febc 215b 753d bf7c 313b
000001c0: 34ff 273d 5b08 603d fe84 303b ada0 e5bc
000001d0: a420 abbc 4c29 1c3d dc72 363d 0202 7cbd
000001e0: 0a1d 6ebd ad37 9fbd ff37 cbbd 5bd6 bc3d
000001f0: 903e 183d ebc8 563c c41d 88bd 3f9c 893d
00000200: 419a 96bd d47c 79bd 8973 85bd 0b89 863d
00000210: 105e fc3c 6b46 77bc 1cc9 e2bb af04 5e3d
00000220: 4e88 5dbd 86de 3bbc 12ca 16bd 8e97 7e3c
00000230: 0923 c4bb 07d0 b0bd 9d58 67bd 09da 8dbc
00000240: 7320 d13c 4a54 0f3a 94cf f63c de47 1cbb
00000250: ade6 843c 653c fc3c 3434 943d 36d5 7cbd
00000260: 139f ffbc 7eb5 af3c 0c65 593d ab10 83bc
00000270: 1854 2d3d 6466 343d 3c3a 3b3d 8e13 b2bc
00000280: 3494 ebbc 892c 9ebb f51f 263d a116 b33b
00000290: 71f3 f13c 9f7d 1d3d 0a03 4b3d 810f 3fbd
000002a0: dbb5 1c3d 9bce 6f3c 83ea 8c3d debb 84bd
000002b0: 2d4f 1ebc ad88 fd3b 4fcb 6d3d 2118 92bb
000002c0: 166b ce3c eb32 55bc 7089 7d3c 74da 6bbd
000002d0: e19f 54bd bdfe 183d d228 b83b 3128 30bc
000002e0: 5b68 61bd 144a 92bc 2b34 623d e7f0 8fba
000002f0: b66f 2f3c d4fa 243d e6c9 903b d02a 0bbd
00000300: 198b a33b b7b9 a43c 682f cf3c a33d 53bc
00000310: 7df2 c0bb 0328 f03b 5fdc ad3d bc48 343c
00000320: 8d59 9f3c d696 18bc 08b4 193d bcf4 84bd
00000330: 5472 2ebd 7222 533d 4eeb 353d 92b4 a9bd
00000340: b17d 5ebd 0603 cfbc cc45 fb3c 935f 1ebd
00000350: 1294 a23b de41 d2bb 6afc 7d3d e459 8fbd
00000360: dd2b 49bd 05b8 cebc d534 ad3d 4e46 0dbd
00000370: c39a b4bc 3aa9 543d 8abc 5a3d c122 4abc
00000380: 3aa0 aa3c 3b61 8ebc ec38 02bc 1fd1 36bd
00000390: b7d0 aebc 91d1 5ebb a7cd 773d 1163 16bb
000003a0: abe5 7ebd b883 7abd fc44 533d cb9d 5bbc
000003b0: bc8b 943c d804 2e3b 9539 1c3c f7e3 093d
000003c0: 8cf2 233d a460 e23c 1544 0d3d 491a 8dbd
000003d0: 19a8 39bb beb8 7f3c 0415 643c c050 80bd
000003e0: fe79 fe3c 4534 04bc 3835 503d 493c 41bd
000003f0: 327b 63bc 7698 ed3c 7191 1f3d ab56 90bd
0.012170231 -0.02306914 -0.005951906 -0.041861475 -0.039978314 -0.049797777 0.058828015 -0.04955082
0.04746671 -0.011667844 0.037722763 -0.00023423569 -0.008195786 -0.051192768 -0.008561304 0.0047635627
0.013392992 0.005863559 0.031902045 0.006693252 -0.049723573 -0.055398054 0.021980038 -0.016816404
-0.010689695 -0.010168775 0.004509746 -0.047299806 0.0086331805 -0.034591995 0.022014903 -0.0940103
-0.015190003 0.05613804 0.10488272 -0.0051695295 -0.03901359 0.030039536 0.03176664 -0.024773266
-0.016123988 0.012748883 -0.034692384 0.008230669 0.061104868 0.045485042 0.04162026 0.01005859
-0.005266459 -0.0319254 0.060245473 -0.08175231 -0.0063013425 0.008074933 0.029827494 -0.04031401
0.0065193702 -0.025705762 0.0110717565 -0.07349327 -0.020711048 0.069572836 -0.022052435 -0.048996333
-0.04486155 -0.005960683 0.051584736 0.10735914 -0.028569307 0.09562341 0.0037685903 0.030817317
-0.072329275 -0.09369547 -0.06360196 0.121367216 0.060893424 0.03038319 -0.077339344 0.09499271
-0.01013294 -0.07327167 -0.009766667 0.088779986 -0.003925746 -0.00485051 -0.06246431 0.07193186
-0.06988547 0.0034242936 -0.0148089975 -0.05513717 -0.025484405 -0.08689987 -0.062958725 0.025081424
-0.035625584 0.047274522 0.049634997 0.0039842892 0.017441567 -0.006542535 0.051593024 -0.028825331
0.021178715 0.010850683 0.023627874 -0.025214734 0.03411613 -0.031067245 0.05990136 0.002708241
0.041014865 0.05469547 0.0026934738 -0.028030718 -0.020889588 0.03812532 0.044543132 -0.061525352
-0.058133163 -0.07774291 -0.0992279 0.092205726 0.03716904 0.013109426 -0.06646302 0.06719255
-0.0735364 -0.06091006 -0.06516177 0.065691076 0.030806571 -0.015092473 -0.0069209468 0.054203685
-0.05408507 -0.011466628 -0.036813803 0.015539063 -0.005985622 -0.08633428 -0.056480993 -0.017315881
0.025528168 0.0005467577 0.030128278 -0.0023846547 0.016223276 0.030790517 0.072365195 -0.06172677
-0.031203782 0.021448847 0.05307488 -0.015999159 0.042316526 0.04404296 0.045709834 -0.02173784
-0.028757192 -0.0048270863 0.04055782 0.005465344 0.029535027 0.03844988 0.049563445 -0.046645645
0.03825937 0.014636661 0.06880667 -0.06481145 -0.009662432 0.0077372403 0.05805522 -0.004458443
0.025197547 -0.013012628 0.015474662 -0.05758138 -0.051910285 0.037352312 0.0056201005 -0.01075177
-0.05503116 -0.017857589 0.055225533 -0.0010981829 0.010707786 0.04027827 0.0044185994 -0.033976376
0.004990947 0.020108087 0.02529116 -0.012893113 -0.005888282 0.0073289885 0.08489298 0.011003669
0.01945188 -0.009313306 0.037525207 -0.06491992 -0.0425895 0.05154652 0.044413857 -0.08286394
-0.054319087 -0.025269996 0.03067293 -0.038665365 0.004961499 -0.0064165434 0.0620083 -0.06999567
-0.049114097 -0.025234232 0.084573425 -0.034490876 -0.022046452 0.0519192 0.05340246 -0.012337388
0.020828355 -0.017380347 -0.007948142 -0.044633027 -0.021339757 -0.0033999423 0.06049886 -0.0022947232
-0.062230747 -0.061160773 0.05157946 -0.01340432 0.018133037 0.002655318 0.009535213 0.03366467
0.040026233 0.027633972 0.034488756 -0.06889779 -0.0028328954 0.015608011 0.013921026 -0.06265402
0.03106403 -0.008069103 0.050832003 -0.047176633 -0.0138843525 0.029003363 0.038957063 -0.070477806

fc1.bias f4 [400]
00000000: 21a4 783d d105 e83c 1176 fa3d 12cf c63d
00000010: e539 32be 8bb1 cd3c 4cc0 cb3d 48d2 903c
00000020: 493f b8ba dc40 11be dbfa b63d a703 573e
00000030: 76d7 42be 82e0 9d3d 9aa9 a53c 2cf9 27be
00000040: 8f28 353e 161a f6bd eab6 953d 204b 0e3d
00000050: aa76 99ba 1f70 2e3e 4fc2 0ebd 6696 f7bd
00000060: 43cd b63d 805d 97bd 4a4b 92bd fbb6 823c
00000070: d4a5 10be b89d 883d ae8a 4fbe 0b3e 353e
00000080: 5634 d03b 755e 5d3e 0da4 cdbd 1e32 1cbe
00000090: 7738 133e f4bd 2abe 51a0 b23d 004a 47be
000000a0: 2efa b73d 5eb4 2abe f586 553e c125 463e
000000b0: d53e 46bd 6d62 dfbd 170f 103e 6feb 293e
000000c0: d6d8 433e 458b 123e fdfc f63d ff25 3a3e
000000d0: df82 d7bc 1fe8 11be f6a9 e13d 769f 2f3e
000000e0: 7136 7cbd 1e0f 0cbe 9f18 af3d a4f7 4abd
000000f0: 78d1 a23d 0ad9 4dbe 9c0d a2bd 190a 413d
00000100: 1e62 233d 1886 7ebd 7678 973d 2468 c53d
00000110: ae12 98bd 6e8c 333e bc3c b23d f87b 4d3e
00000120: 9c63 fdbb bc8c 123e 03ce 29bc cdd2 99bd
00000130: 5953 35be 7653 eb3d 88ad 2b3d 6852 403e
00000140: bc73 783e 01bd a7bd 363f 873d 19b0 513e
00000150: ab3d 1dbe 1fa2 153e a2ba 073b 146f 51be
00000160: 5b1d 3ebe 295d a33d 0fb0 4dbd c22a 0c3e
00000170: 2dfc 413e 38ce 963d 10d2 87ba 9ae3 6b3d
00000180: 7726 943d 5449 553e feb8 5a3d f9dc 23be
00000190: ad62 033e bd88 bbbb 2671 ffbc c565 fabd
000001a0: 0b73 3d3e 7689 7bbb 9e67 083e 126e 643e
000001b0: c0e9 1ebe 62c4 0d3e d5bb 843d e2b2 13be
000001c0: 0426 54bd 3864 1abc e828 78bd 5c1f 55be
000001d0: a1fc da3a b2f8 8c3d 0299 0bbe d87a c1bd
000001e0: 6c0d dd3d abc7 8dbd e892 10be 9dec 4ebe
000001f0: c42a d5bd bff4 3ebe 0119 163e 3360 a83d
00000200: 1984 dbbd ffd9 e5bd 0e9a fa3d 563d 8e3d
00000210: 8871 03be 69c1 4d3d 6b6a f03d aaf6 6cbb
00000220: d1b3 a33d 4712 d33a c27b 9bbb edd4 ffbd
00000230: a006 163d 844e f9bd 09a0 24bd ab7a f3bc
00000240: 34de a8bd cc77 1a3e f8f3 21be 8cc4 acbb
00000250: 6f60 dc3d a9df 83bd 2ef0 f13d 02b1 9f3d
00000260: 8cc4 5cbd e475 83be 2eb9 12be 9bf8 b73b
00000270: 5a9d 703e b2f2 3f3e 593f cd3d f6a0 65bc
00000280: d823 b0bc daba 5a3d 9db1 52be f345 103d
00000290: d064 3a3d 621a 043e 7d17 f2bc 3b87 59be
000002a0: 866f 153e c6ca ae3c 239b bdbd a458 e83d
000002b0: 263b 283e b195 7fbb af61 3fbe 5c2a fabd
000002c0: a63b a6ba 984d 223d 320d 3cbe 5585 14be
000002d0: 31b0 0a3b ea37 9ebd 86ae 42be 55ee bfbd
000002e0: 30ac 183e 4b70 453e 5582 8ebd 5d94 0fbe
000002f0: b7f9 47be cef7 d1bc ade3 db3d d36c 7dbd
00000300: d5f6 1d3e 0d3f 293b 78d7 1bbe d25e ae3d
00000310: 9f17 04be 4cdb febd fbb7 f5bc 94f8 ba3c
00000320: e98e 0abc 718e 6b3d 1292 213e a7df ff3d
00000330: 9ce4 a93d 4ca7 01be 4f10 5a3e 8d62 c0bd
00000340: 9935 413e 59b2 333e b94f ba3d de19 03be
00000350: 5597 123e cbd7 023e c8aa 2dbe fd9c f73c
00000360: 2364 afbc e3ec 833b fe11 23be 6d4d 003e
00000370: 5f83 d2bd 0b49 003e 2b63 cd39 205c 6c3b
00000380: f89e c93d 6f92 1fbd ae01 b8bc 45c3 573b
00000390: 870e b03d 455f 85bd f4d0 17be a274 50be
000003a0: c62d 91bd 9a81 1d3e f571 fd3d d6b7 253e
000003b0: 466d 4e3d 5c2a 0bbe e573 193e d974 a13d
000003c0: 4f4c 743e c1de cc3a d98b ba3d f53d 0c3d
000003d0: 2f0f 123e e766 3d3e 267a 363e 3f01 473e
000003e0: 36c7 893c 184d 17be e54e 0fbe ced6 46be
000003f0: 6264 3bbe 2d63 4d3e ca6d 863d 44e4 35bd
0.0607034 0.028323086 0.12229551 0.09707464 -0.17404898 0.025109073 0.09948787 0.017678395
-0.0014056946 -0.14184898 0.08934566 0.20997487 -0.19027504 0.07708837 0.020222474 -0.16403645
0.17691253 -0.12016694 0.07310279 0.034739614 -0.0011708338 0.17034958 -0.034853276 -0.12089233
0.08925869 -0.073908806 -0.071432665 0.015956393 -0.14125758 0.066707075 -0.20267746 0.17699449
0.006353895 0.21618064 -0.10041056 -0.15253493 0.14377008 -0.16674024 0.08721984 -0.19461823
0.08983265 -0.16670367 0.20852263 0.1935034 -0.048399765 -0.10907445 0.14068256 0.16593717
0.19125685 0.1431094 0.120599724 0.18178557 -0.026307521 -0.14248703 0.110187456 0.17150673
-0.061575357 -0.13677642 0.08549618 -0.049552575 0.07950109 -0.20102325 -0.07912752 0.04712877
0.039888494 -0.0621396 0.07396023 0.09639004 -0.07425438 0.17534038 0.087029904 0.20066822
-0.0077328216 0.14311498 -0.010364058 -0.0751091 -0.17707576 0.11490528 0.04191354 0.18781435
0.24262899 -0.081903465 0.066038534 0.20477332 -0.15355556 0.14612626 0.0020710607 -0.20452529
-0.18565886 0.07976753 -0.05021673 0.13688186 0.18943854 0.07363552 -0.0010362286 0.057590105
0.07233899 0.20828754 0.05339908 -0.16002263 0.1283061 -0.0057230876 -0.031181883 -0.12226442
0.18500917 -0.0038381494 0.13320777 0.22307613 -0.15518856 0.13844445 0.064811386 -0.14423707
-0.051794067 -0.009423308 -0.060585886 -0.20812744 0.0016707369 0.06883372 -0.13632587 -0.09447259
0.10793576 -0.06922849 -0.1411854 -0.20207448 -0.104085475 -0.1864805 0.14657976 0.082214735
-0.10718555 -0.1122322 0.12236415 0.06945293 -0.12836277 0.05023328 0.117390476 -0.0036157765
0.07993282 0.001610347 -0.0047449777 -0.12491784 0.03662741 -0.12173179 -0.040191684 -0.029721579
-0.08245507 0.15084761 -0.15815723 -0.0052724537 0.10760581 -0.06439144 0.11813389 0.077974334
-0.05389838 -0.2567588 -0.14328453 0.005614353 0.23497525 0.18744925 0.10021848 -0.014015427
-0.021501467 0.05340085 -0.20575567 0.03522296 0.0455063 0.12900689 -0.029552216 -0.21242993
0.14593324 0.021336924 -0.092581056 0.11345032 0.16428813 -0.0038999135 -0.18689607 -0.12215111
-0.0012682572 0.03962478 -0.18364409 -0.14503987 0.0021162147 -0.077255085 -0.19011888 -0.0937163
0.14909434 0.19281118 -0.069584526 -0.1402144 -0.19528852 -0.025630858 0.10736785 -0.06187136
0.1542619 0.0025824935 -0.15218914 0.08514179 -0.12899636 -0.12444171 -0.029994955 0.02282361
-0.008456924 0.05750889 0.15778378 0.1249383 0.08295557 -0.12661475 0.21295284 -0.09393797
0.18868102 0.17548503 0.09097237 -0.12802836 0.14315541 0.12777631 -0.16959679 0.030226225
-0.021410054 0.004026042 -0.15924832 0.12529536 -0.10278963 0.12527864 0.00039174533 0.0036065653
0.09844774 -0.03895801 -0.022461738 0.0032922786 0.08596521 -0.06512312 -0.14825803 -0.20356992
-0.07088809 0.1538147 0.12375251 0.16183409 0.05039718 -0.13590378 0.14985617 0.07883615
0.23857234 0.0015630351 0.09108705 0.034238774 0.14263605 0.18496285 0.17820033 0.19434069
0.016818624 -0.14775503 -0.1399494 -0.19417879 -0.18300012 0.20057364 0.06563909 -0.044407144

fc2.weight f4 [300, 400]
00000000: 514b 65bd 7485 70bd 6fb9 acbc 6213 2d3d
00000010: 9e35 47bd 1a33 723c 1b54 e4bc a983 8fbc
00000020: 4eb9 d0bc 9133 71bc 8bb0 4e3d 3a29 50bd
00000030: e848 10bd 511c 8abc 00d9 b13c 0be3 e5ba
00000040: 4dbc 853b a3a5 943b 7889 2a3d c6b6 0e3d
00000050: 7780 213c 3501 553d 0ef5 aa3c efcd 40bd
00000060: 1f51 b0bc 4b97 5cba d63a 823c 06e1 f5bc
00000070: 611b 67bc 9f34 69bd 98ad 6839 4746 a83c
00000080: bd93 16bd 2cad 44bd 8d93 f73a 3dd8 21bc
00000090: d87f ce3c fa9b a43b e1d3 f3bc 6f49 bebc
000000a0: 99f2 023d 58c3 6bbd e949 6b3c 276d 59bc
000000b0: b555 7abd 45c4 e7bc 2072 79bd 5990 f33c
000000c0: 2425 c43b 3b04 98bc 367a 9bbc 6da6 61bd
000000d0: e66d ef3b 095a 62bd 29d7 b33c a24e a7bc
000000e0: d715 4f3d b2b7 323d 55ca 29bc 3988 be3a
000000f0: a854 61bd 7386 033d b8b9 4dbd b589 313d
00000100: 659f 123d 2291 f2bb 3b39 073d 6d4a 923c
00000110: bc26 5bbd efb3 34bd e537 c8bc 0791 d23c
00000120: 3351 cb3c 7a4b 413d a38d 8f3c ad6e b4bb
00000130: 1752 97bc 09b7 0fba 48e6 d63c c8c7 a9bc
00000140: 936e b03c c465 3bbd 7cbb 113d 076e 74bd
00000150: c702 d43c f234 573c 1a2c 08bc ca4b 6fbc
00000160: baa6 c63c 7570 29bc b98c b4bc aab4 d8bc
00000170: 6519 653d a766 cabc 8645 2f3d b7c2 37bc
00000180: fcdb 2cbd 0e20 a83a d0bc f9bc f5f6 e0bc
00000190: fd42 2bbd da77 ebbc 5fda d8bc a14a e83b
000001a0: 3d06 3ebd 5d5a a7bc acd1 c63c 5b90 d9bc
000001b0: b5a0 213d ea84 eebc 93d8 183d 24b7 533d
000001c0: a341 f8bb 2c9c 7b3c f5b5 c13c c5bd 2bbd
000001d0: ff24 47bc 3afd 9d3c 8fab 9fbc 624a fbbc
000001e0: 798c 5c3d a0f2 833c 4962 953c 1e19 d03c
000001f0: ca7e 2c3b a130 59bd ba04 8abb 7b62 f43c
00000200: 4809 bd3c af34 87bc de80 563d 6b6c c9bc
00000210: 9ae7 be3c 3d5e a93c 69c9 863c 4277 6bbd
00000220: 643a 24bc 6c6e b0bc d931 76bc 54db 923c
00000230: 7c4e 8bbc 9f46 d4bc 1b3a 753c 3f2d 923c
00000240: 5944 18bb a642 30bd ee83 54bc 7b37 f8bc
00000250: e270 c43c ed38 843a da9d 033c 3092 2b3d
00000260: 80b6 3dbd 08f2 54bd 5d68 4ebd 8359 403c
00000270: ab66 1bbd 8a8f b03c 2227 543d b714 3bbd
00000280: e703 0abd 3f77 17bc 6681 3f3d 7f99 46bc
00000290: 4da3 9b3c bfac 1abd 67a8 7c3b 7ccf e9bb
000002a0: c32d 9c3c b8ac edbb 95a5 c23b 91d7 16bd
000002b0: ab85 a4bc b11a e3bc 87a6 af3c a909 08bd
000002c0: 1a77 82bd ef11 973b adb0 83bc e768 133d
000002d0: 2c4d 7ebd 46fe 853b 5156 27bc 9c07 14bd
000002e0: 71af 0bbc 7a79 333d 526f 9f3c 8847 c4bc
000002f0: 4cf4 06bd 175a e9bb fda5 093c 1dd4 3b3d
00000300: 052a 18bd 1da5 953c cbc9 99bc db8f d0ba
00000310: f235 523d c7b0 97bc 5403 6cbd 9e1a cfbc
00000320: 27d1 d5bb 1553 03bd c66b fc3c 5167 e7bc
00000330: 61ea 85bd 9dfb 39bc f63f d43c b526 70bc
00000340: f47e a3bc a7bd 2abd b5b5 083d 58e8 f03c
00000350: 61e8 9b3c ef08 51bb ad69 1a3d 07a4 5cbc
00000360: a348 b9bb a8c9 56b9 0929 b93c 16b5 3a3d
00000370: 61a7 55bd 5341 9fbc bcae 3fbc 4b6f 26bd
00000380: 7ad3 113d 9c40 25bd eaa7 e1bb 51f1 43bc
00000390: 5e80 d73c fb57 79bd d78b f13c 0d25 813c
000003a0: f79d 80bd 8ab7 293d eb5f 1b3d 7c0d cebb
000003b0: a23f 1bbd 4f64 60bd feea d53a b674 883c
000003c0: f992 22bd 5b72 2abd 73a5 243d 0459 ee3c
000003d0: 8f97 7cbd f32f 18bd 4584 973b 8a36 7cbd
000003e0: c50d 84bd 27d3 63bd 3801 0bbd 3305 a53c
000003f0: f566 c83c cd41 5f3d 84ff cbbc e1e2 2dbd
-0.05598003 -0.05872102 -0.021084515 0.042254813 -0.048635118 0.014782691 -0.027872136 -0.017518835
-0.025478985 -0.014721767 0.050461333 -0.050820567 -0.03522578 -0.016859205 0.021709919 -0.0017538978
0.004081285 0.004536347 0.041635007 0.034842275 0.009857289 0.052003104 0.020868804 -0.047071394
-0.021523057 -0.00084148784 0.015897196 -0.030014526 -0.014105649 -0.05693495 0.00022189913 0.020541323
-0.036761988 -0.048016712 0.0018888578 -0.009878215 0.025207445 0.0050234767 -0.029764118 -0.023228375
0.03196964 -0.05755934 0.014360883 -0.013270653 -0.061116893 -0.02829183 -0.060899854 0.029731916
0.005985873 -0.018556705 -0.018979173 -0.055090357 0.007306802 -0.055261645 0.021953182 -0.020423237
0.050557937 0.043632217 -0.010363181 0.0014536447 -0.055012375 0.032110643 -0.050225943 0.04334422
0.03579654 -0.007402555 0.033013564 0.017857755 -0.053503737 -0.04411691 -0.024440715 0.02570392
0.024818992 0.04719112 0.017523592 -0.0055063576 -0.01847176 -0.00054822915 0.026232854 -0.020725146
0.0215371 -0.04575135 0.03557919 -0.059675243 0.02588023 0.013135182 -0.008311296 -0.014605472
0.024249423 -0.010341753 -0.022039758 -0.026453335 0.05593242 -0.024707152 0.042790912 -0.011215857
-0.04220198 0.0012826936 -0.03048554 -0.027461508 -0.041811932 -0.028743673 -0.026471315 0.0070889746
-0.046392668 -0.02042883 0.024269901 -0.026558092 0.039459903 -0.029116113 0.037315916 0.05168833
-0.007576184 0.0153570585 0.023646334 -0.041929025 -0.012154817 0.019285787 -0.019490985 -0.030675117
0.053844903 0.016106904 0.018235343 0.025402602 0.002632069 -0.05302489 -0.004211989 0.029832115
0.023075715 -0.016504614 0.05236899 -0.02458783 0.023303796 0.02067482 0.016453462 -0.05748678
-0.010023687 -0.021537028 -0.015026533 0.01792685 -0.017005198 -0.025912581 0.014967467 0.01784384
-0.0023234098 -0.04303231 -0.012970908 -0.030299893 0.023979608 0.0010087766 0.00803324 0.041887462
-0.046316624 -0.05198863 -0.050392497 0.011740091 -0.03793971 0.02155282 0.051795132 -0.045674052
-0.033695128 -0.009244739 0.046754263 -0.012121557 0.018998766 -0.0377624 0.0038552524 -0.00713533
0.01906479 -0.0072532557 0.005940149 -0.036826674 -0.02008327 -0.027722688 0.021441711 -0.033212338
-0.06370373 0.004610292 -0.016075457 0.035988715 -0.062085316 0.0040891496 -0.0102134505 -0.03614007
-0.008525715 0.04381702 0.019462261 -0.02395989 -0.032947823 -0.0071213352 0.008401391 0.045856584
-0.037149448 0.018267209 -0.01877298 -0.0015912013 0.051320978 -0.018516911 -0.05762036 -0.025281247
-0.006525177 -0.032061655 0.03081311 -0.028247507 -0.06538845 -0.011351493 0.025909405 -0.014657666
-0.019957997 -0.041684773 0.033376414 0.029407665 0.019031705 -0.0031896194 0.037698437 -0.013466842
-0.005654411 -0.00020483753 0.022602575 0.045582853 -0.052161578 -0.019440329 -0.011699375 -0.04063348
0.03560207 -0.04034482 -0.006886472 -0.01195939 0.026306327 -0.06087492 0.029485626 0.015764738
-0.062801294 0.041434802 0.03793327 -0.0062882286 -0.03790248 -0.05478316 0.0016320643 0.016657215
-0.039690945 -0.041612964 0.040196847 0.02909518 -0.061667975 -0.037155103 0.004623922 -0.06157545
-0.06447939 -0.055621292 -0.03393671 0.02014408 0.024463156 0.054506112 -0.024902113 -0.042452697

fc2.bias f4 [300]
00000000: ed92 19bd e73b eb3c 4c86 9a3d b5d1 343d
00000010: 44e7 063b f812 a7bc 197a 2f3d a6a7 ac3c
00000020: 662c d4bc ae61 d5ba 3522 a13c b229 993c
00000030: 616c d03d 807c 0dbd 95a9 b83d 98bd b5bc
00000040: 1b16 593d 2156 8cbd 4d77 bc3c 6e7a 833c
00000050: d523 0c3d 3262 29bd 8ed6 61bc 9eb2 ab3d
00000060: 7bc8 9d3c a973 fe3c 1185 fb3c 5c6c fcbc
00000070: fe8a 2b3d 7e56 20bb 61af 553d ad34 813d
00000080: ef19 bb3c aec6 bb3c 5014 2ebd 783b 4a3b
00000090: fe89 ab3d 2b0c 6cbc c90b 863c 8071 fcbc
000000a0: 61cb b33c a2c7 23bd e644 983c ccfc 9f3d
000000b0: b2dc a83c afc8 0e3d 73a7 11bc ecaa e3bb
000000c0: b6d3 183d 9185 143c 2256 e4bc 9aa4 57bc
000000d0: 3ed1 67bc 9532 7b3b 72a0 113b cd20 fa3c
000000e0: c6b2 c23d 4934 983d 8518 70bc 1b42 f43c
000000f0: 6787 563d 4c37 033d 0dd7 35bc 8186 1dbd
00000100: 7c9f 783d a170 19bd b901 24bd 9096 19bd
00000110: df10 193d 9247 adbb 1d1c c03d 3749 103d
00000120: 9565 fd3c 7509 4d3d d8bf 9e3d 4abd 15bd
00000130: a035 4dbd 3729 e6bc 7c9e cfbb 8c23 103d
00000140: f9f9 a53d e10a 393d 81d3 21bc e9d3 1abc
00000150: 05db 123d 344b b03c 4d91 083d 86d5 4e3c
00000160: 2bc6 f43b a31c bc3b 9b1d c03c 3626 2d3c
00000170: 7f72 75bc e434 b8bc 2141 753c 0b9c 3c3c
00000180: db4e 83bc eccf 87bb e852 633d c387 ed3c
00000190: b3f4 e5bc 913d c43c 9300 4ebd 9786 e93c
000001a0: 2a8a 923d a622 953c a021 28bd 324f 553c
000001b0: 4f57 4d3b c285 043d 2b7d e43c 5bcd 373d
000001c0: 408e 1cbd f62d 7bbc 9e5f 18bd d9bc 023d
000001d0: 5db5 f93c 758c cdbc c4a3 1dbd 5302 8c3c
000001e0: 7f91 833c 228a c63c 900d be3c 1edd de3c
000001f0: 54e7 7b3d 4528 243d eb2d 283d 1715 ceb8
00000200: db27 0d3b 09b6 dabc 7936 423d e2de 0dbd
00000210: 4e32 e83b 29e0 a5bc 6271 c0bc 0abd 043d
00000220: f002 193d 4383 a73d b93a efbc 87c7 333d
00000230: 5b9e 063d 60e8 803c 520f 043d 1c48 763c
00000240: abd7 183d 633a 9fbb 282e 18bd 3b14 80bb
00000250: 54fc 453c e7fe da3c 8e09 1a3d 98f0 c23d
00000260: f16e f6bc 2628 ec3d 3d74 eabb a672 5ebc
00000270: 092c 39bd 6238 a1bc 3f6d 8d3c 8fb5 da3c
00000280: 8019 103d d9be d13c 0881 0b3d c476 9ebc
00000290: 712c 59bd eaa7 883d 00dd c63d 01db 53bd
000002a0: 33e7 c6bc 845b c8bb 7613 4b3d 059d 013d
000002b0: f423 0dbd 315e 32bd 9c6a 2d3a 6f16 5c3d
000002c0: f661 85bb 53b4 9dbc e004 dc3c f5d7 833d
000002d0: c7f3 523d 4fee 383c d3e2 9cbc 5723 c33b
000002e0: 5866 f43c 89f6 0c3d a404 153c 4027 423d
000002f0: 0855 4b3c 6537 53bd bc7c e63c 2c1b 503d
00000300: 9814 553d ab2a e93c 82a7 3fbb d884 3c3d
00000310: 92fb 433d aa5e df3c 399c 323b 8970 59bc
00000320: 34fa bc3c 93bb 103c 8d06 c53c 76e6 223d
00000330: 7171 08bc 64ef 203d 4f16 243d 30d4 0cbd
00000340: 302e 9d3d 87fc 2dbd 5d13 21bb ff3f 3d3d
00000350: 4937 cfbc 7f02 c6bc 4f32 cdbc 9c85 e9bc
00000360: f4d2 483d 3580 c33c 096a 3c3d a75e 093c
00000370: ac8f 4a3d c932 ecba 8b6f a13d a006 35bd
00000380: 0d33 3ebc cd5f bb3c 27b3 31bd fa1f b93c
00000390: 168c 81bd 846f fdbc 3826 a73d 42b2 f9bc
000003a0: 2ac2 1d3d 3890 773d ef04 063d 1ec5 2d3d
000003b0: ff2e dd3c d837 13bc 22ee 113d d009 e23b
000003c0: 1114 3cbb 088a 32bd d2ca 38bc dc30 be3a
000003d0: 3f59 333b 7b6e 6cbb 3601 0fbd 2534 473b
000003e0: f5cf 8e3d c355 083c bff6 403d fc64 643c
000003f0: ce14 943c 9b8e f7bc 4c46 d6bb f333 383d
-0.037493635 0.028715087 0.07545146 0.044145305 0.0020584622 -0.020394787 0.04284105 0.021076035
-0.025900077 -0.0016279721 0.019669631 0.01869664 0.10176922 -0.03454256 0.0901672 -0.022185132
0.052999597 -0.06852365 0.023006106 0.01604959 0.03421386 -0.041353412 -0.013784064 0.08383678
0.019260636 0.03106101 0.0307031 -0.030813389 0.0418806 -0.0024465616 0.052169207 0.06308875
0.022839515 0.022921886 -0.04249984 0.00308582 0.08375929 -0.014407198 0.016363041 -0.03081584
0.021947565 -0.039985307 0.01858754 0.07811889 0.020613048 0.034859356 -0.008890021 -0.0069478657
0.03731128 0.009065048 -0.027873103 -0.013161803 -0.014149008 0.003832971 0.0022220877 0.030533219
0.095067546 0.074318476 -0.014654283 0.029816678 0.052375223 0.032035157 -0.011098635 -0.03845835
0.06069897 -0.037460927 -0.040040705 -0.037497103 0.037369605 -0.005288073 0.09380362 0.035226073
0.030932227 0.050057847 0.07751435 -0.036557473 -0.05009997 -0.028095825 -0.0063360315 0.03519015
0.08104319 0.04517639 -0.009877087 -0.009449937 0.035853405 0.021520235 0.033341695 0.01262415
0.0074699125 0.0057407185 0.023451617 0.010568192 -0.014980911 -0.022486158 0.014969141 0.011511813
-0.016028812 -0.0041446593 0.055498987 0.0289954 -0.028070783 0.023955138 -0.050293516 0.02850656
0.07155259 0.018204998 -0.041047692 0.01301937 0.0031332558 0.032354124 0.027891716 0.044873577
-0.038221598 -0.015330782 -0.037200563 0.03191838 0.030481989 -0.02509139 -0.038486257 0.017090952
0.016060589 0.024235789 0.023199826 0.027205046 0.06149991 0.040077467 0.041059416 -9.826774e-05
0.0021538648 -0.02669813 0.04741523 -0.034636386 0.007086075 -0.02024849 -0.023491565 0.032406844
0.037356317 0.08179333 -0.029202806 0.043891456 0.032865863 0.015735805 0.032241173 0.015031841
0.037315052 -0.004859255 -0.037153393 -0.0039086617 0.0120840855 0.026732875 0.03760677 0.09518546
-0.030082198 0.11531095 -0.00715497 -0.013577139 -0.04520801 -0.019680206 0.017264007 0.026697902
0.03518057 0.025603699 0.0340586 -0.019343741 -0.0530209 0.06672652 0.09710121 -0.05172253
-0.024280166 -0.006114425 0.049579106 0.031643886 -0.034458116 -0.04354686 0.00066153123 0.05373233
-0.0040705157 -0.019251024 0.026857793 0.06437675 0.051502015 0.011287286 -0.019151127 0.0059551406
0.029833958 0.0344148 0.009095345 0.047400713 0.01241041 -0.0515665 0.02813565 0.050807163
0.052021593 0.028462728 -0.002924413 0.046025127 0.047847338 0.027266819 0.002725376 -0.013271459
0.023068525 0.008833784 0.024050975 0.039770566 -0.008327828 0.0392908 0.040060338 -0.034382045
0.07674825 -0.042477157 -0.0024578192 0.04620361 -0.025294917 -0.024171112 -0.025048403 -0.028506093
0.049029306 0.023864845 0.04599956 0.008384383 0.049453422 -0.0018020506 0.07882603 -0.04419577
-0.011608851 0.02287283 -0.043383744 0.022598255 -0.063255474 -0.030936964 0.081615865 -0.030480508
0.038515247 0.060440272 0.03271955 0.042424314 0.026999949 -0.008985482 0.03562749 0.0068981424
-0.0028698484 -0.043588668 -0.011278825 0.0014510411 0.0027366427 -0.0036076594 -0.034913264 0.003039607
0.069732584 0.008321228 0.047110315 0.013940092 0.018076327 -0.030219367 -0.0065391418 0.044971418

fc3.weight f4 [2, 300]
00000000: 579f 413c c193 a93c f129 f73c 4ff3 9d3c
00000010: 1705 bc3c bbd2 163d a0fd e33c 67e7 883c
00000020: bfa2 d13b 43d4 973c df2c b13c 5f0a c03c
00000030: a60d d53c 61dd a73b c013 893e 9441 2e3c
00000040: 5c03 bc3c 7796 dc3b 65f9 a83c 7819 993c
00000050: cd7d 363c e2ab ce3b dfbc 903c 9dd2 183d
00000060: 6dcf 643d 802c a83c 4451 b83c e013 0a3d
00000070: 9391 6d3c 9aa5 523c f89c 9e3c b10a bf3c
00000080: bcdd 093c 8a37 bc3c 25e7 a63c 56d7 a43c
00000090: 8314 a63c 1521 a23c 9643 c03c 14c7 ae3c
000000a0: 2859 353c cfa6 da3b ca65 bd3b ce9d f93c
000000b0: f128 ac3c cc60 bf3b 7ca8 b63c bbd7 a43b
000000c0: d6f8 dc3c 0621 0d3d 03a9 b03c 3f93 b93c
000000d0: 303f 123c 0765 ad3c e49e d43b 1628 303d
000000e0: cac0 8e3c 93f8 b23c 33a0 bd3c af52 563c
000000f0: b303 bd3c 5401 253c ca5a a33b bbb6 bb3c
00000100: 75b5 bc3c 5376 773c e5c5 0d3c 8941 b93c
00000110: 8280 9e3c 6409 b43c fa1c 9a3c 89c2 f33b
00000120: 7efb a83d 915c a83d 9b73 ef3c 3259 bd3c
00000130: 272d e63b f844 be3c cbd0 923c f240 af3c
00000140: 818e ff3c 5795 ac3c c560 f03c b6d6 b33c
00000150: 37a5 da3b f872 c93c 93ce f13b 2c14 8b3c
00000160: c553 233d 51dd 083c 6b1a c33c 971e 0a3c
00000170: 8dd8 173d 27e7 bc3c eed6 fc3c 7336 af3c
00000180: ac59 6b3c 4afb d63c e3fb df3c 8029 353c
00000190: c5e5 c03c 6c1a 963b 858f 103c 3d0e 863c
000001a0: f54e 9d3c 761f bb3c 2361 343c 99c1 7c3c
000001b0: 18fc 053c c454 4a3c f0a4 f33c c889 293d
000001c0: abb9 083d 7365 9d3b 78ee b33c 36c9 b43c
000001d0: 3537 453c a565 ae3c be4a 853c 73ca 4c3d
000001e0: af2d c53c 31c8 bc3c e269 0e3d 1e8c d23c
000001f0: f267 bc3c e5c3 363d aa0f b73c dfa1 a03b
00000200: 9480 a53c c7fb d13b 59f5 d43c bc4b 863c
00000210: 0093 b13c 777e 183c f16a a13c 2962 493d
00000220: f00b 803c d41d a03c c7b1 a73c 83ca 983c
00000230: a093 db3b dc92 583c ec48 7f3c 7e21 6e3c
00000240: ef4d ce3c c9e9 b03c e28d be3c f211 b63c
00000250: b770 b93c bbb9 e73c caaf 823c 95ef e03c
00000260: df52 6e3c 58af 0f3d 4ac8 5e3c ff3b ab3c
00000270: d732 e03c 415c 8a3c 0b80 133c 99a0 453b
00000280: a386 a73c 095e af3c 6038 8a3d c60f b73b
00000290: 0214 e73d c41d 4a3d d56b 9c3d 08e2 0f3c
000002a0: 6f96 703c a479 aa3c 4c94 073d 2592 ac3c
000002b0: 35dc b23b 2403 8a3c a549 6d3c c0d2 1e3d
000002c0: 4e80 173c 6e88 b93c 225b 0a3c 536d 063d
000002d0: 13d4 a83c 6aef 3b3c 0bac 8c3c b3fd 723c
000002e0: 31e1 f43c e50f 463c 3ecc 243c da5c a33c
000002f0: 3d12 6b3c eadf ef3b dab7 403c 3299 8e3c
00000300: cbe0 8a3c bd4a ea3c 477a da3c d5d8 353c
00000310: 2749 793c 24c8 b23c cb08 bd3c 28ac c13b
00000320: 5f8c ad3c 9952 c73c 46ba cb3c 0c89 c23b
00000330: 976a c83c 1aea f53c f6a6 803c 4667 f53a
00000340: e209 793d 5163 cb3b 9c6c 193d 8e44 c83c
00000350: f433 163c 8324 c43b d866 123c c5b1 c43b
00000360: 39e2 aa3c 4a0c ee3b f487 533d 9772 293d
00000370: d216 c53c 6040 c03c fb33 f93c 045c ad3c
00000380: 6c6d f13c 841e a23c 0b5b 2c3d 42bd a53c
00000390: 8b8e b93c ea56 ff3b c832 043e 99b0 c83c
000003a0: 0991 8b3c e3af 623d b1e1 183d 4793 b93c
000003b0: 7636 433c d023 a73c 232f ff3b 164c 753c
000003c0: 259d 443c 3ff2 c73b a988 993c 26f0 b83c
000003d0: e684 c03b d868 293c e934 d63c 4440 223c
000003e0: fdcd c43c ddb7 3f3c 1ee6 c53c a68d cf3c
000003f0: b878 9b3c f9dd b23c 501e ae3b 3511 a73c
0.011817775 0.020700337 0.030171366 0.019281058 0.022951646 0.036822062 0.027830899 0.016711904
0.0063975747 0.018533831 0.021627842 0.023442445 0.026007485 0.005122826 0.2677288 0.010635752
0.02295082 0.006731804 0.020626733 0.018688902 0.011138392 0.006307111 0.017668186 0.03731023
0.05586188 0.020529032 0.022499688 0.03371036 0.01450004 0.012856865 0.019361958 0.023320528
0.008414682 0.022975702 0.02037389 0.020122211 0.020273453 0.019791165 0.023469727 0.021335162
0.01106862 0.006672717 0.0057799565 0.030470755 0.021015616 0.0058403965 0.022297136 0.0050306
0.026974123 0.03445532 0.021564966 0.02265322 0.008926198 0.021166338 0.006488668 0.04300698
0.017425913 0.021847045 0.023147678 0.013081237 0.023073053 0.010071117 0.004985188 0.022914281
0.023035744 0.015103894 0.008653139 0.022614257 0.019348387 0.021977134 0.018812645 0.007438962
0.08251093 0.08220781 0.02922993 0.02311382 0.0070244255 0.023226246 0.017921826 0.021393273
0.03119588 0.021067305 0.029343018 0.021952968 0.006672527 0.024590954 0.007379362 0.016977392
0.03987481 0.008353547 0.023816308 0.008430145 0.037071753 0.02305944 0.030864205 0.021388268
0.014364641 0.02624287 0.027341789 0.011057258 0.023547063 0.0045807865 0.00882328 0.016364211
0.019202689 0.02284215 0.011009487 0.015427017 0.00817778 0.012349311 0.029741734 0.041391164
0.03338019 0.0048033535 0.021964297 0.022068601 0.012037088 0.021288702 0.016270991 0.049997758
0.024069635 0.023044677 0.034768946 0.025701579 0.022998784 0.044620413 0.022346336 0.004902109
0.020202912 0.006408188 0.025995897 0.016393535 0.02167654 0.009307495 0.019704314 0.04916588
0.015630692 0.019545473 0.020470513 0.018651253 0.006700948 0.013218608 0.015581351 0.014534352
0.025183646 0.021595852 0.023261014 0.022225354 0.022636754 0.028286805 0.015952963 0.027457992
0.014546125 0.03507933 0.013597557 0.020902632 0.027367992 0.016889693 0.009002696 0.0030155538
0.020449942 0.021407144 0.06749034 0.005586597 0.11283113 0.049344793 0.07637755 0.008781917
0.014684304 0.020809956 0.03310041 0.02106578 0.0054583796 0.0168472 0.01448289 0.038775206
0.009246899 0.022648063 0.008444579 0.032819103 0.020608937 0.011470655 0.01717188 0.014830994
0.029892536 0.0120887505 0.010058461 0.019941736 0.01434761 0.007320394 0.011762584 0.017407034
0.016952893 0.028600091 0.026669635 0.01109906 0.015215195 0.02182395 0.023075482 0.005910415
0.021185098 0.024331378 0.024869096 0.0059367474 0.024464888 0.030018855 0.015704613 0.0018722794
0.06080044 0.006206908 0.037457094 0.024446752 0.00916766 0.005985798 0.008935653 0.006002637
0.020859824 0.0072646486 0.051643327 0.041369047 0.024058733 0.023468196 0.030420294 0.02116204
0.029471122 0.019789942 0.042079013 0.020231847 0.022650978 0.0077923434 0.12909997 0.02449827
0.017036932 0.05534352 0.03732461 0.022653235 0.01191484 0.020402819 0.0077876016 0.014971754
0.012000357 0.006101876 0.018741922 0.02257545 0.0058752177 0.010339938 0.026148276 0.009903017
0.024024004 0.011701551 0.02415758 0.025336098 0.018978462 0.02183436 0.005313672 0.020393947

fc3.bias f4 [2]
00000000: aec8 5a3d cbc0 723d
0.05341404 0.059265893
