checkpoint_critic1.pth (torch_old, 525824 bytes, 5 tensors)

fcs1.weight f4 [400, 24]
0	0x3e493769	0.19650044
1	0x3e9a8bd1	0.30184796
2	0xbcfae05f	-0.030624567
3	0xbd775880	-0.060387135
4	0x3d8a4ff1	0.06753529
5	0xbe4a33fe	-0.19746396
6	0xbd29ebd9	-0.041484687
7	0xbcbab310	-0.022790462
8	0x3e8438f1	0.25824693
9	0x3ebaff8a	0.36523086
10	0xbd318187	-0.043336418
11	0xbcddfeb6	-0.027098995
12	0xb8d9a183	-0.0001037745
13	0xbe68416e	-0.2268121
14	0xbc7c7ea4	-0.015411053
15	0xbd1f949b	-0.03896008
16	0x3e611857	0.21981941
17	0x3e9aea6a	0.3025697
18	0xbd5888c6	-0.052864812
19	0x3c49f0a4	0.01232544
20	0xbd4e31e4	-0.05034055
21	0xbe93c144	-0.28858387
22	0xbcf980c9	-0.030456917
23	0x3c9e89dd	0.019352848
24	0x3e06a574	0.13149053
25	0xbd0ade4e	-0.033903413
26	0xbbdb281c	-0.006688131
27	0x3db2c2d6	0.08728568
28	0xbd69473c	-0.0569527
29	0xbc9af441	-0.018915297
30	0xbc0086bd	-0.007844624
31	0x3db1d9a2	0.08684088
32	0x3e082e13	0.13298826
33	0x3bf38ab3	0.0074323057
34	0x3c2e9602	0.010655882
35	0xbba3ce31	-0.004998945
36	0xbd226fff	-0.03965759
37	0xbd997b4a	-0.07494219
38	0xbc23f0cf	-0.010006144
39	0x3d2e5646	0.042562746
40	0x3e046129	0.12927689
41	0x3d66dea3	0.056364667
42	0xbd7364b9	-0.05942223
43	0x3d097692	0.033560343
44	0x3d62a908	0.055336982
45	0x3ca92cdb	0.020651272
46	0x3cd02a63	0.025410837
47	0x3caa5b94	0.020795621
48	0x3de32aa8	0.110921204
49	0xbd2f9d21	-0.04287446
50	0xbdb11220	-0.08646035
51	0xbd984b75	-0.07436267
52	0xbe2f1bbd	-0.17100425
53	0xbdf22bdc	-0.11824772
54	0xbe035bc6	-0.12827978
55	0xbd50c174	-0.05096574
56	0x3e472344	0.19447047
57	0xbd44e370	-0.048068464
58	0x3c735567	0.0148519045
59	0x3d15a758	0.036536545
60	0xbdeffe48	-0.11718422
61	0xbe477a17	-0.19480167
62	0xbd012c70	-0.03153652
63	0x3d817f63	0.06323125
64	0x3ea73df0	0.32664442
65	0x3c82467a	0.015902746
66	0x3ad81600	0.0016486049
67	0xbd229f18	-0.039702505
68	0xbdf6c175	-0.12048618
69	0xbea0fdbd	-0.31443587
70	0xbc66273d	-0.014047441
71	0xbd9ed114	-0.07754722
72	0x3e1ab834	0.1510933
73	0x3c046748	0.008081265
74	0x3c5d85c8	0.0135206655
75	0x3d908b40	0.0705781
76	0xbe6ea628	-0.23305571
77	0x3dff983a	0.12480207
78	0x3d8e09e6	0.06935482
79	0x3d29fd02	0.041501053
80	0x3e649dad	0.22325774
81	0x3aa10671	0.0012285245
82	0xbc0a5727	-0.00844363
83	0xbd9cb17a	-0.076510385
84	0xbe75323c	-0.23944944
85	0x3d9870f3	0.07443418
86	0x3d5e6d41	0.05430341
87	0xbdd51e0e	-0.10406123
88	0x3e619905	0.22031029
89	0x3dff11d4	0.12454572
90	0xbc607a7e	-0.013701079
91	0x3e528803	0.20559697
92	0xbe7ddc60	-0.24791098
93	0xbd371b18	-0.044703573
94	0xbd3971d8	-0.045274585
95	0x3e82a4c5	0.25516334
96	0xbe8c2202	-0.27369696
97	0x3d079b3a	0.03310702
98	0x3cc0ef96	0.023551743
99	0x3d355aec	0.044276163
100	0x3eba67ce	0.36407322
101	0x3e432ff2	0.19061258
102	0x3ba3d1c3	0.004999371
103	0xbc1fa5d9	-0.009744131
104	0x3e7e3ebe	0.24828622
105	0x3de32efc	0.11092946
106	0xbd405d83	-0.04696418
107	0xbec165a6	-0.37772864
108	0xbd390549	-0.045171056
109	0x3cbea8d0	0.023273855
110	0x3cecdec6	0.02891482
111	0xbee0362e	-0.43791336
112	0x3f0415e5	0.5159591
113	0x3e3024d5	0.1720155
114	0xbcbc027b	-0.022950402
115	0x3e91ec69	0.2850068
116	0xbd48910a	-0.048966445
117	0x3e0d6961	0.1380973
118	0xbcc7b472	-0.024378035
119	0x3ea3581d	0.31903163
120	0x3d91774a	0.07102831
121	0x3ddfbe79	0.10925002
122	0xbd1aa1fa	-0.03775213
123	0x3dd37d14	0.10326591
124	0x3e14420c	0.1447832
125	0xbda14bd0	-0.07875788
126	0xbd6ffea3	-0.05859245
127	0x3dfac860	0.1224525
128	0x3e236a38	0.15958488
129	0x3e87af06	0.2650072
130	0xbe16da30	-0.1473167
131	0xbdbd9990	-0.09257805
132	0x3da13c08	0.07872778
133	0xbe05f0e8	-0.1308018
134	0xbe00ab95	-0.12565453
135	0xbd999cf9	-0.07500643
136	0x3e847c35	0.25876012
137	0x3e6958aa	0.22787729
138	0xbd94eea0	-0.072720766
139	0xbd7f7f02	-0.062376983
140	0x3d5404b4	0.051762298
141	0xbd9ba9bb	-0.07600733
142	0xbdbd5611	-0.092449315
143	0xbde10767	-0.1098774
144	0x3e0fdc5d	0.14048906
145	0x3f033413	0.51251334
146	0x3be56de4	0.0070016254
147	0x3e548c45	0.20756634
148	0x3db5903f	0.088654034
149	0x3d803648	0.06260353
150	0xbc791f90	-0.015205279
151	0x3e10f835	0.14157183
152	0x3df21558	0.11820477
153	0x3f0c8906	0.5489658
154	0xbc096527	-0.008385933
155	0x3d00b36b	0.031421106
156	0x3dc259b7	0.09489768
157	0x3d2f7804	0.042839065
158	0xbaf6d59c	-0.0018831971
159	0x3cd20b48	0.025640145
160	0x3dfaa66a	0.12238772
161	0x3f253e43	0.6454813
162	0xbbd1d395	-0.0064033964
163	0xbe1d9b4e	-0.15391275
164	0x3de459d9	0.111499496
165	0xbd8a9060	-0.067658186
166	0x37ccfaf2	2.443555e-05
167	0xbdb62419	-0.08893604
168	0x3e43c94d	0.19119759
169	0x3ccde1ad	0.025132025
170	0xbc80aa0a	-0.015706081
171	0x3d52d984	0.05147697
172	0x3c904ad7	0.017613811
173	0xbdb48a72	-0.08815469
174	0x3b893529	0.0041872454
175	0x3d9a6c46	0.07540183
176	0x3dfdddea	0.123958424
177	0x3d3f03f6	0.046634637
178	0xbd025cc3	-0.031826746
179	0x3c95cb97	0.018285556
180	0xbc468161	-0.012115807
181	0xbdf20e74	-0.11819163
182	0xbcc1100f	-0.023567228
183	0xbd84f002	-0.0649109
184	0x3e135386	0.1438733
185	0x3d63577f	0.055503365
186	0xbcdd9131	-0.027046772
187	0x3c3c3eeb	0.01148961
188	0xbd12b769	-0.035819445
189	0xbd9e40c9	-0.077272005
190	0x3d3ba941	0.04581571
191	0x3cbfd153	0.023415243
192	0x3c39b118	0.011333726
193	0xbe1896a3	-0.14901213
194	0xba3b67ab	-0.00071489316
195	0xbd179617	-0.03700837
196	0x3eb09d95	0.34495226
197	0xbdd565db	-0.10419818
198	0xbd35b695	-0.044363577
199	0x3ca5d879	0.020244824
200	0xbcc27c76	-0.023740988
201	0xbca9b634	-0.020716764
202	0x3cef2bdb	0.029195717
203	0x3df5cd0d	0.12002001
204	0x3ecfc3da	0.4057911
205	0xbe952084	-0.2912637
206	0x3d268e16	0.040662847
207	0x3d198155	0.037476856
208	0x3cb1a01a	0.021682788
209	0xbba92301	-0.0051616435
210	0x3dbf2639	0.09333462
211	0xbdd54c42	-0.10414936
212	0x3e89d5f3	0.26921043
213	0xbe4bc0f1	-0.1989782
214	0x3d0cf7a6	0.034415863
215	0xbd9a7f46	-0.07543807
216	0x3da03bde	0.07823919
217	0x3c91a85d	0.017780477
218	0x3b6b722d	0.0035926208
219	0xbd9e2d92	-0.077235356
220	0xbcfe11e7	-0.031014396
221	0xbc8593c8	-0.01630582
222	0xbcd35434	-0.025796987
223	0xba7986f4	-0.0009518706
224	0x3db9f6f6	0.09080307
225	0xbc881784	-0.016612776
226	0xbcf98334	-0.03045807
227	0xbcba3c2c	-0.02273377
228	0xbc02cd34	-0.007983495
229	0xbcdcfc98	-0.026975915
230	0x3c2b514d	0.010456395
231	0xbd673cd2	-0.056454487
232	0x3d8dffb9	0.06933541
233	0x3d50455c	0.050847396
234	0xbca4d5fd	-0.020121569
235	0xbd0ed316	-0.034869276
236	0x3c2ad46a	0.01042662
237	0x3bd64d30	0.006539963
238	0x3ca73076	0.02040885
239	0x3b54a00e	0.0032444033
240	0x3d707a84	0.05871059
241	0xbe59d59b	-0.2127289
242	0x3c7724c6	0.015084451
243	0x3dfbb309	0.122900076
244	0xbdd5e03f	-0.10443162
245	0x3d5b5c13	0.053554606
246	0xbb979106	-0.0046254424
247	0x3df6d2d6	0.120519325
248	0x3e2e52b7	0.1702374
249	0x3d63e5c7	0.055639055
250	0xbd33c143	-0.04388548
251	0x3ebe01d4	0.3711077
252	0xbcd69153	-0.026192343
253	0xbdc9e454	-0.09858003
254	0xbd590d82	-0.052991398
255	0x3ebdc736	0.37066048

fcs1.bias f4 [400]
0	0xbe1f0dff	-0.15532683
1	0xbcf7ab3a	-0.030233014
2	0x3df194de	0.11795972
3	0xbe028800	-0.12747192
4	0xbed8fd51	-0.42380765
5	0xbe80c4cd	-0.25150147
6	0x3c859ebf	0.016311048
7	0x3b947a29	0.004531164
8	0xbe71dc54	-0.23619205
9	0xbe45ecca	-0.19328609
10	0xbdef7396	-0.11691968
11	0x3ea8200c	0.3283695
12	0xbedb366d	-0.4281496
13	0xbcdd1569	-0.026987748
14	0xbd8a997c	-0.06767556
15	0xbe2e9978	-0.17050731
16	0xbd938087	-0.07202249
17	0xbeddbd1b	-0.4330834
18	0xbe7a1e97	-0.24425732
19	0xbcd54c7c	-0.026037447
20	0xbb19ccd9	-0.0023468046
21	0x3d205f5e	0.03915345
22	0xbe119d35	-0.14220126
23	0xbed2ceca	-0.41173393
24	0xbe71c5d9	-0.23610629
25	0x3cfaafa2	0.030601326
26	0xbeaf9a60	-0.34297466
27	0xbd736c44	-0.059429422
28	0xbe86ccb1	-0.26328042
29	0xbe7adab7	-0.24497496
30	0xbe9f2d5f	-0.31089303
31	0x3edfbd4d	0.43699113
32	0xbe4dcca0	-0.2009759
33	0x3df32d66	0.118738934
34	0xbe855c38	-0.2604692
35	0xbe5ec358	-0.21754205
36	0xbd2537be	-0.040336363
37	0xbe5cec4c	-0.21574515
38	0x3cde14e6	0.027109575
39	0xbe2454b5	-0.16047938
40	0x3d89c7a3	0.06727531
41	0xbe6fabf9	-0.23405446
42	0x3e547ae0	0.20749998
43	0xbd1c7a3d	-0.038202513
44	0xbe5817fc	-0.211029
45	0xbe1b514c	-0.15167731
46	0x3e05fa8c	0.13083857
47	0xbe126f82	-0.1430035
48	0x3dbed3f8	0.093177736
49	0x3dde2465	0.108467855
50	0xbdbd97d7	-0.09257477
51	0x3e9b8195	0.303723
52	0x3df08e30	0.1174587
53	0xbe1a76f9	-0.15084447
54	0x3e38f509	0.18062223
55	0xbbe7620d	-0.007061249
56	0xbe141abb	-0.14463322
57	0xbe8dfa15	-0.2772986
58	0xbc810ea0	-0.015754044
59	0xbe6db606	-0.23213968
60	0x3e02d6cb	0.1277725
61	0xbe91a197	-0.28443596
62	0xbe28e2b3	-0.16492729
63	0xbc9e6d7f	-0.019339321
64	0x3e2723ba	0.16322222
65	0xbb98be08	-0.0046613254
66	0xbd9216a6	-0.07133226
67	0xbd992bfe	-0.07479094
68	0xbee49752	-0.44646698
69	0x3d9ec865	0.07753066
70	0x3cc248c4	0.023716338
71	0xbc9a9b26	-0.018872809
72	0xbe889c44	-0.2668172
73	0x3e013067	0.1261612
74	0xbd8da5d5	-0.069163956
75	0xbe5c4c76	-0.21513543
76	0xbe505cf5	-0.2034796
77	0xbd0fc71b	-0.03510199
78	0xbe3e7364	-0.18598706
79	0x3dc06b9c	0.09395525
80	0x3e8f0da6	0.279401
81	0xbea21303	-0.3165513
82	0xbcfb8abd	-0.030705804
83	0x3ccc42df	0.02493423
84	0xbee2730c	-0.442284
85	0x3ca08741	0.019595744
86	0xbdf693e2	-0.12039925
87	0xbe85ecbd	-0.2615718
88	0xbeb07560	-0.3446455
89	0x3c3fcd6a	0.011706689
90	0xbe0a204a	-0.1348888
91	0x3d9d063b	0.07667204
92	0x3de68fc3	0.11257889
93	0xbca6843c	-0.020326726
94	0xbd73abd0	-0.059490025
95	0xbde984a6	-0.11402254
96	0xbd8c4928	-0.06849891
97	0x3e7758de	0.24154994
98	0x3d036173	0.032075357
99	0xbec604a7	-0.38675424
100	0x3d1a3fce	0.037658505
101	0x3d2f2080	0.042755604
102	0xbcbafa63	-0.022824472
103	0xbefdbcb9	-0.49558046
104	0x3e082f99	0.13299407
105	0xbeb19b71	-0.34688905
106	0xbe40e218	-0.18836248
107	0x3caf9c04	0.021436699
108	0xbe8aaee0	-0.27086544
109	0x3db2f2ef	0.08737742
110	0xbd94e841	-0.072708614
111	0xbede652d	-0.43436566
112	0xbe8e862f	-0.2783675
113	0xbe062c06	-0.13102731
114	0xbed09846	-0.40741175
115	0xbe39059c	-0.18068546
116	0xbdeee69e	-0.116650805
117	0x3dfa45eb	0.12220367
118	0xbe838762	-0.25689226
119	0xbe3347d1	-0.17507865
120	0x3d306119	0.04306135
121	0x3d7af8ed	0.06127255
122	0xbecc3cd7	-0.39890167
123	0xbeac6a0a	-0.3367465
124	0xbe341580	-0.17586327
125	0xbe5bf4b2	-0.21480063
126	0x3e150f74	0.14556676
127	0xba824dd3	-0.0009941406
128	0xbe405691	-0.18783022
129	0xbdf76256	-0.12079303
130	0xbd6d4837	-0.057930198
131	0xbdc6c432	-0.0970539
132	0xbe431ab5	-0.19053157
133	0xbdae8bd6	-0.08522765
134	0x3d3b1192	0.045671053
135	0xbd88a4a1	-0.066720255
136	0xbdbe8932	-0.09303512
137	0xbc1e2516	-0.009652397
138	0xbc053d94	-0.008132357
139	0xbe0699a6	-0.1314455
140	0xbba1c894	-0.004937241
141	0xbe3c4f79	-0.18389691
142	0xbe6a3673	-0.22872333
143	0xbdc0bf48	-0.09411484
144	0xbeba8e3f	-0.3643665
145	0x3d98c873	0.07460108
146	0xbee47739	-0.4462221
147	0xbbe5fd00	-0.0070186853
148	0xbeba6d41	-0.3641148
149	0xbe5eccd3	-0.21757822
150	0x3db6ad3f	0.08919763
151	0xbe17c516	-0.14821276
152	0xbe1c94c5	-0.15291126
153	0xbebd7768	-0.37005162
154	0xbe4f83a9	-0.20265068
155	0xbe25c636	-0.16188893
156	0x3d4e452e	0.050358944
157	0xbd22dc9f	-0.039761182
158	0xbe8dbab2	-0.276815
159	0xbdfd0912	-0.12355246
160	0xbdeef2fc	-0.11667439
161	0x3e96fdc6	0.2949049
162	0xbe8596da	-0.26091653
163	0xbda6d91c	-0.08146879
164	0xbe2bab67	-0.16764604
165	0xbddc5c32	-0.10759772
166	0xbdb01da4	-0.085994035
167	0xbe977fd8	-0.29589725
168	0xbd6284dd	-0.05530249
169	0xbdb7329a	-0.08945198
170	0xbea9b5ce	-0.33146518
171	0x3e1f9042	0.15582374
172	0x3db7dac3	0.08977272
173	0xbe124115	-0.1428264
174	0xbe242b71	-0.16032197
175	0xbdf30fa0	-0.118682146
176	0xbdcf6cc8	-0.1012817
177	0xbec608ad	-0.38678494
178	0xbf00c4ac	-0.503001
179	0xbe8e46c0	-0.27788353
180	0xbd946677	-0.07246106
181	0xbc828837	-0.015934093
182	0xbee65bac	-0.44991815
183	0xbe861d37	-0.26194164
184	0x3df5a3f5	0.11994163
185	0x3e5a5ed9	0.21325244
186	0xbe87b4f5	-0.26505247
187	0xbecb6f08	-0.39733148
188	0xbdb33516	-0.0875036
189	0xbdecb423	-0.11557796
190	0x3dcf458d	0.10120688
191	0xbdfa2b6f	-0.122153156
192	0x3d81d584	0.06339553
193	0xbecde5d8	-0.4021442
194	0xbe8f8ac0	-0.28035545
195	0x3da660f6	0.081239626
196	0xbe8fb812	-0.28070122
197	0xbe6d80bc	-0.2319364
198	0xbe552422	-0.20814565
199	0xbe829914	-0.25507414
200	0xbd832cd0	-0.06405032
201	0xbdcdca17	-0.10048311
202	0x3dff4fb7	0.12466376
203	0xbda959a0	-0.08269048
204	0x3d992b72	0.0747899
205	0xbe7c0637	-0.24611746
206	0x3cb8f3bf	0.022577165
207	0xbe4ae586	-0.19814119
208	0x3b80943a	0.00392392
209	0x3ebcc361	0.36867812
210	0x3bbf79b1	0.005843364
211	0xbd822a09	-0.06355674
212	0x3dfbc799	0.122939296
213	0x3c7b2869	0.015329459
214	0xbe2c3d05	-0.16820152
215	0xbd4c2395	-0.04983862
216	0x3c2767f9	0.01021766
217	0xbd43e2d1	-0.04782373
218	0xbf08f7e2	-0.5350324
219	0x3f2297be	0.6351279
220	0xbe3a0aa7	-0.18168126
221	0x3d77d107	0.06050208
222	0xbe31f1c4	-0.17377383
223	0xbeb41cf8	-0.3517835
224	0x3db3c450	0.08777678
225	0xbe0fe5c2	-0.1405249
226	0xbe3be243	-0.18348031
227	0xbd753788	-0.05986741
228	0xbdcf3135	-0.10116807
229	0xbeaca977	-0.3372304
230	0xbe03fe54	-0.12889987
231	0xbe521ac2	-0.2051802
232	0xbeb00a4a	-0.3438285
233	0x3e344576	0.17604622
234	0x3df7841d	0.120857455
235	0x3d28783c	0.04113029
236	0x3b3d0022	0.002883919
237	0xbe224630	-0.15847087
238	0x3dbc67b7	0.091994695
239	0xbcf9cd9e	-0.030493554
240	0x3e3ee2de	0.1864123
241	0xbe09937c	-0.13435167
242	0xbe06b0e6	-0.13153419
243	0x39ad2c32	0.0003303006
244	0xbdd3dfed	-0.10345445
245	0x3c9ac7a6	0.018894028
246	0x3e06e4ff	0.13173293
247	0x3e0fcdc0	0.14043331
248	0xbe0efa59	-0.13962688
249	0xbeb51497	-0.3536727
250	0xbe2d4e01	-0.16924287
251	0xbe889dff	-0.2668304
252	0xbe40ec0f	-0.18840049
253	0xbd68fe87	-0.05688336
254	0x3d871014	0.065948635
255	0xbdf84556	-0.121226

fc2.weight f4 [300, 402]
0	0xbb2b7f58	-0.0026168432
1	0xbdd5629b	-0.10419198
2	0xbd419514	-0.047261313
3	0xbd96321f	-0.073337786
4	0x3c5b8616	0.013398668
5	0x3c2881ea	0.01028488
6	0xbd8e5d41	-0.069513805
7	0x3c09eded	0.008418542
8	0xbcd3a658	-0.025836155
9	0x3d253b04	0.040339485
10	0xbd8669b6	-0.065631315
11	0xbcfb7fbe	-0.03070056
12	0xbdb460e0	-0.0880754
13	0xbcd938d7	-0.026516361
14	0x3c651594	0.013982195
15	0x3d3cc20d	0.0460835
16	0x3b4439c0	0.0029941648
17	0xbda00d83	-0.07815077
18	0xbc7f6ff8	-0.01559066
19	0x3d049f2b	0.032378357
20	0xbcee1acd	-0.029065514
21	0x3cff3411	0.031152757
22	0xbcc599fe	-0.02412128
23	0xbdb703f4	-0.08936301
24	0x3c3157ab	0.010824124
25	0xbaa1d3d7	-0.0012346458
26	0xbd2e8170	-0.04260391
27	0x3c8a9868	0.016918376
28	0xbccc510a	-0.024940986
29	0xbd453958	-0.04815039
30	0xbccedcb5	-0.025251726
31	0xbbbbd23c	-0.005731849
32	0xbd47a409	-0.04874042
33	0xb98901e6	-0.0002613209
34	0xbdd9ade6	-0.106288716
35	0xbb3889bd	-0.002815827
36	0xbccabe4d	-0.024748946
37	0x3c81f043	0.015861636
38	0xbc448519	-0.011994624
39	0xbdde9659	-0.1086852
40	0x3cd26d20	0.0256868
41	0xbd4a2b23	-0.049357545
42	0xbc8e3588	-0.01735951
43	0xbcdaf750	-0.026729256
44	0xbdd6bccb	-0.10485228
45	0xbd85780f	-0.0651704
46	0xbda0a3e6	-0.07843761
47	0xbc894696	-0.01675729
48	0x3cbf1e5c	0.023329906
49	0xbd2bd2c9	-0.041949067
50	0xbc3877fd	-0.011259076
51	0x3c3ad5e4	0.011403535
52	0xbd002444	-0.031284586
53	0xbd7c159d	-0.06154405
54	0xbd95a83e	-0.0730748
55	0x3c845497	0.016153617
56	0xbdb7c9c6	-0.08974032
57	0xbbf83a04	-0.0075752754
58	0xbcc6cfd8	-0.02426903
59	0xbc9e313b	-0.019310584
60	0x3a815caf	0.0009869541
61	0xbcf950f6	-0.030434113
62	0xbd464921	-0.048409585
63	0xbde2f251	-0.110813744
64	0xbd105e8c	-0.035246417
65	0x3bc9b342	0.0061554024
66	0xbc3a08f4	-0.011354674
67	0x3cdb20c6	0.026749026
68	0xbd7d4229	-0.061830673
69	0x3c1322ee	0.008980496
70	0xbc8dfdb3	-0.017332887
71	0x3bac98d1	0.0052672406
72	0x3a39afbc	0.00070833764
73	0x3d6300c9	0.05542067
74	0xbcce2ff1	-0.025169345
75	0x3d36493e	0.044503443
76	0xbdbb9c4b	-0.0916067
77	0x3c6bff38	0.014404111
78	0x3c18b0b8	0.009319477
79	0xbd7b1ab0	-0.061304748
80	0x3cbd7c58	0.02313058
81	0xbd0b680d	-0.034034777
82	0xbd42c169	-0.04754773
83	0x3ba36d6c	0.0049874093
84	0xbcffa265	-0.031205365
85	0xbc00ae4e	-0.0078540575
86	0x3cbedc80	0.023298502
87	0x3c91332d	0.017724598
88	0xbdaabae3	-0.08336427
89	0x3c84c528	0.016207293
90	0x3cb22d88	0.021750227
91	0xbda23f38	-0.07922214
92	0xbe08ed38	-0.13371742
93	0x3c79aeaa	0.015239397
94	0xbd89a35d	-0.06720612
95	0xbdb96eda	-0.090543464
96	0x3a8b800c	0.0010643019
97	0xbb8962f3	-0.004192704
98	0xbd524801	-0.0513382
99	0xbe0699ad	-0.1314456
100	0x3d6ef323	0.058337342
101	0xbc33ee84	-0.0109821595
102	0x3a046daa	0.00050517416
103	0xbd505d29	-0.050870094
104	0x3d4b5749	0.04964379
105	0xbd7f0253	-0.062258076
106	0xbd922d81	-0.071375854
107	0x3c4447a5	0.011979972
108	0xbdded602	-0.108806625
109	0xbcbff29e	-0.023431119
110	0xbdec4bbe	-0.11537884
111	0x3d059bab	0.03261916
112	0xbd09aac8	-0.033610135
113	0x3cb50294	0.022095956
114	0xbcd619a6	-0.026135277
115	0xbd913cfb	-0.07091709
116	0xbc475f13	-0.012168664
117	0x3c7a5a4d	0.015280318
118	0x3d31f91a	0.043450452
119	0xbce05432	-0.027383897
120	0xbc03af5b	-0.0080374135
121	0xbd7a0a4b	-0.061044972
122	0xbd734248	-0.059389383
123	0x3d075298	0.033037752
124	0x3cc2aae9	0.023763137
125	0x3d11ef18	0.03562841
126	0xbd88b315	-0.06674782
127	0xbc8f8673	-0.017520165
128	0xbd03147f	-0.03200197
129	0xbdbb3afd	-0.091421105
130	0x3d1b1c82	0.037868984
131	0x3c2ab68b	0.010419498
132	0x3c871d77	0.016493542
133	0xbd8d0fd1	-0.06887782
134	0x3bcceed4	0.0062540565
135	0xbc864519	-0.01639037
136	0xbd1e8097	-0.03869685
137	0xbd0109f2	-0.031503625
138	0xbc84d98a	-0.016217012
139	0xbd5c4b5a	-0.0537828
140	0xbcc818dc	-0.024425916
141	0xbccfefcd	-0.0253829
142	0xbc61c227	-0.0137792
143	0x3d2baef7	0.041914906
144	0xbd302d7f	-0.04301214
145	0xbbfb17bd	-0.007662742
146	0xbd974239	-0.07385678
147	0x3d697a01	0.057001118
148	0x3d12fd1c	0.035885915
149	0xbd6fba57	-0.058527317
150	0xbce25848	-0.027629986
151	0xbd83a44f	-0.06427824
152	0xbb71e54c	-0.0036910353
153	0x3c3691e0	0.011143178
154	0xbc79e3b1	-0.01525204
155	0x3cce8bd8	0.025213167
156	0xbc5c15a5	-0.013432895
157	0xbdae79d3	-0.0851933
158	0x3be3026c	0.006927779
159	0xbd2f64f1	-0.042820875
160	0x3c43be4a	0.011947224
161	0xbc61c840	-0.0137806535
162	0xbd74b66c	-0.059744284
163	0x3a3d66fd	0.0007225124
164	0xbc17cb5b	-0.009264792
165	0xbd63c62e	-0.05560892
166	0xbe0bb54a	-0.13643375
167	0xbccfca6c	-0.025365077
168	0xbb83dd56	-0.004024188
169	0xbd026a02	-0.03183938
170	0xbd8f729e	-0.07004283
171	0x3c952428	0.018205717
172	0xbbe617f7	-0.0070219
173	0x3ced0308	0.02893211
174	0xbce5651b	-0.028002312
175	0x3c27de85	0.010245924
176	0x3bb22bc8	0.005437348
177	0xbd1ca8ae	-0.038246803
178	0xbd7a3fdf	-0.06109607
179	0xbbc029b5	-0.005864347
180	0xbc29e863	-0.010370347
181	0xbdde3205	-0.10849384
182	0x3c99c065	0.018768499
183	0x3d3a0c37	0.045421805
184	0x3b8b1707	0.0042446884
185	0xbb982da4	-0.0046441127
186	0x3cbf1311	0.023324521
187	0x3cfe7935	0.031063655
188	0xbdb5695c	-0.08857986
189	0xbcb25df7	-0.021773322
190	0xbdb66a39	-0.08906979
191	0xbc2ebae2	-0.0106646735
192	0xbd1b5232	-0.037920184
193	0x3c6687f2	0.014070498
194	0xbb4cacfe	-0.003123104
195	0x3d083e10	0.033262312
196	0xbbe7a5b2	-0.007069313
197	0xbcb9595c	-0.022625618
198	0xbb1c68d1	-0.0023866186
199	0x3c7f3554	0.015576679
200	0xbd7551bc	-0.0598924
201	0xbd702b7b	-0.058635216
202	0xbce76eca	-0.02825107
203	0xbcd233cc	-0.025659464
204	0xbd7e6f50	-0.062117875
205	0xbd19dc61	-0.037563685
206	0xbd3f55ba	-0.046712615
207	0xbc1c86b1	-0.009553597
208	0xbb2d58e0	-0.0026450679
209	0xbdcb3df8	-0.09923929
210	0xbd06ccbd	-0.032910097
211	0xbd372c81	-0.044720177
212	0xbd98c25f	-0.07458948
213	0x3d385cb5	0.045010287
214	0x3d234742	0.03986288
215	0xbd057a69	-0.032587443
216	0xbd54a6bb	-0.05191682
217	0xbd4628f1	-0.04837889
218	0x3cc889a1	0.02447969
219	0xbd92f3ce	-0.07175408
220	0xbd13a348	-0.03604439
221	0xbda8b99d	-0.08238528
222	0x3ce45fa1	0.02787763
223	0x3d41d203	0.047319423
224	0xbcaa1fbe	-0.020767089
225	0x3c483729	0.012220182
226	0x3c5abd03	0.013350728
227	0x3d3a0177	0.045411553
228	0xbc700b1f	-0.014651089
229	0x3d04e207	0.03244212
230	0xbd91986d	-0.07109151
231	0xbd57f550	-0.052724183
232	0xb9430ab5	-0.00018600638
233	0xbd8e6765	-0.06953315
234	0x3a2d2c57	0.00066060334
235	0x3c4c9d1e	0.0124886315
236	0xbd020011	-0.031738345
237	0xbd58847e	-0.05286073
238	0xbcc833ea	-0.024438817
239	0x3c3682c8	0.011139579
240	0xbca2eaf8	-0.019887432
241	0xbd9e65e7	-0.0773428
242	0xbd50e4eb	-0.050999563
243	0xbc576f58	-0.013149105
244	0x3d610aba	0.05494187
245	0xbd2ba3b8	-0.04190418
246	0xbd88bcc1	-0.06676627
247	0x3c029870	0.007970914
248	0x3c989870	0.018627375
249	0xbd97b90d	-0.074083425
250	0x3b160ac1	0.0022894593
251	0xbc09c25d	-0.008408156
252	0xbd709fe0	-0.05874622
253	0xbd4d9d37	-0.05019876
254	0xbd1027d6	-0.03519424
255	0x3c2f7717	0.010709546

fc2.bias f4 [300]
0	0xbd4d1177	-0.050065484
1	0xbcb30f56	-0.021857899
2	0x3d006dbf	0.031354662
3	0x3b9353a7	0.004496056
4	0x3c397563	0.011319491
5	0xbe33eac5	-0.17570026
6	0xbdeddf74	-0.11614886
7	0xbd454938	-0.04816553
8	0x3d4d7d60	0.050168395
9	0x3e4cf3c1	0.2001486
10	0x3cc0c7f3	0.023532843
11	0xbd6ba213	-0.057527613
12	0xbd84f51a	-0.06492062
13	0xbc985ef0	-0.018599957
14	0x3ebd7bc4	0.37008488
15	0x3bbe0752	0.0057992125
16	0xbd6f514b	-0.058427136
17	0x3e6a804c	0.22900504
18	0xbb1ddde5	-0.0024088558
19	0xbd401345	-0.046893377
20	0xbd577576	-0.052602254
21	0xbcd1da76	-0.025616866
22	0x3e61a55e	0.22035739
23	0x3d794635	0.06085797
24	0xbd14f142	-0.036362894
25	0x3b1f5fba	0.0024318532
26	0xbd8e0643	-0.06934788
27	0x3c7e4c3a	0.0155211035
28	0xbd47312f	-0.04863089
29	0x3adeaa18	0.0016987948
30	0xbd9fec99	-0.07808799
31	0xbdd5959d	-0.10428927
32	0xbd613572	-0.05498261
33	0xbd2d4444	-0.04230143
34	0xbd59b4f1	-0.053151075
35	0xbd172418	-0.036899656
36	0xbdaf3664	-0.08555296
37	0xbd8e45a4	-0.06946877
38	0xbcf1d40f	-0.029520063
39	0xbd45e7f4	-0.04831691
40	0xbd841ab1	-0.064504035
41	0xbd855265	-0.06509856
42	0xbd84821d	-0.0647013
43	0xbdce8990	-0.10084832
44	0xbcb261ee	-0.021775212
45	0xbda410f9	-0.0801105
46	0xbc73e9d3	-0.014887291
47	0x3c888db5	0.016669134
48	0xbd84587a	-0.06462188
49	0x3e8309ed	0.2559351
50	0xbcfb36f1	-0.030665847
51	0xbd500c19	-0.050792787
52	0xbd2c9afb	-0.04213999
53	0xbc9a8456	-0.01886193
54	0x3cbe2546	0.023211133
55	0xbdae26c6	-0.08503489
56	0xbc5c6980	-0.013452888
57	0x3a80a700	0.0009815395
58	0xbd08bd8a	-0.033383884
59	0xbd0d3073	-0.034470033
60	0xbdb0d651	-0.086346276
61	0x3aab4b76	0.0013068754
62	0xbd6f0ceb	-0.05836193
63	0xbba5d4ea	-0.0050607817
64	0xbd8bdd82	-0.06829359
65	0xbd77018e	-0.060304217
66	0x3e2cdf74	0.16882116
67	0x3b65a042	0.0035038148
68	0x3c75c9d5	0.015001734
69	0xbd84d75f	-0.06486391
70	0xbc09811d	-0.008392599
71	0xbca46ed1	-0.020072373
72	0xbda068e2	-0.07832505
73	0xbdcc2ee2	-0.0996988
74	0xbd41df89	-0.04733232
75	0xbd61f92f	-0.05516928
76	0xbc6aedc2	-0.014338912
77	0x3e693bfb	0.22776787
78	0xbc319d7a	-0.010840768
79	0x3da56125	0.080751695
80	0xbd495589	-0.04915384
81	0xbd108462	-0.0352825
82	0xbc1ec6a8	-0.009690918
83	0xbd556b7f	-0.05210447
84	0xbdc36d54	-0.09542337
85	0x3a182072	0.00058031746
86	0xbc4fc665	-0.012681578
87	0xbdd2ced4	-0.102933556
88	0xbc5fe95d	-0.013666478
89	0xbc05b698	-0.0081612095
90	0xbd841faa	-0.06451352
91	0x3d778253	0.06042702
92	0xbdb86416	-0.09003465
93	0xbd473c22	-0.04864133
94	0xbdc17fd1	-0.09448207
95	0xbd135b83	-0.035975944
96	0xbd9598eb	-0.073045574
97	0xbd75a8fb	-0.059975605
98	0xbd8ce96a	-0.06880458
99	0xbdd0f5d7	-0.1020314
100	0xbcd3c61d	-0.025851304
101	0x3e4e3e56	0.20140967
102	0xbd1d11e1	-0.03834713
103	0xbdb5c0ad	-0.088746406
104	0xbd59fbd2	-0.05321867
105	0xbd34e89d	-0.04416715
106	0xbde66c7a	-0.11251159
107	0xbd42f7b4	-0.04759951
108	0xbd7e72fa	-0.06212137
109	0x3bfdb392	0.0077423537
110	0xbd84e1f6	-0.06488411
111	0xbd8201b5	-0.06347982
112	0xbd8205ac	-0.06348738
113	0xbdb5d661	-0.0887878
114	0xbd7e99c5	-0.062158365
115	0xbce4151e	-0.0278421
116	0xbc6db2b5	-0.014507939
117	0xbceb33af	-0.028711168
118	0x3e81720d	0.25282326
119	0xbd388f3f	-0.045058485
120	0xbd103c6d	-0.035213877
121	0xbc90adca	-0.017660994
122	0xbca5d717	-0.020244164
123	0xbdc1cc8b	-0.094628416
124	0xbd06a2bd	-0.032870043
125	0xbced4e0e	-0.028967883
126	0x3a08d478	0.00052196486
127	0xbcdacfad	-0.026710356
128	0xbcdb1796	-0.026744645
129	0xbc92c30b	-0.01791527
130	0xbd516e2c	-0.05113046
131	0x3cb27cc0	0.021788001
132	0x3e564ae1	0.20927002
133	0xbd985a99	-0.07439155
134	0x3d54e833	0.051979255
135	0xbd36b4ec	-0.044606134
136	0xbd108cc1	-0.035290483
137	0xbd0f2979	-0.03495166
138	0xbddbf7e5	-0.107406415
139	0xbe058db3	-0.13042335
140	0x3e3348b2	0.175082
141	0x3ce1973d	0.027537936
142	0xbd965e77	-0.073422365
143	0xbd6f9c54	-0.058498695
144	0xbd3b39f6	-0.045709573
145	0xbd00647b	-0.031345826
146	0x3cab5057	0.020912332
147	0xbc88bda8	-0.016691998
148	0xbca8c79c	-0.020602994
149	0xbd3a6ada	-0.045512058
150	0xbd168ffe	-0.036758415
151	0xbd02eabc	-0.03196214
152	0xbdaaf398	-0.08347243
153	0xbce0b537	-0.02743016
154	0x3ea3a621	0.31962684
155	0xbce6bd3b	-0.028166404
156	0xbbde2e47	-0.006780419
157	0xbd95f37a	-0.0732183
158	0xbbc4b788	-0.006003324
159	0xba553cdc	-0.0008134374
160	0xbccdf162	-0.025139514
161	0xbd1f1a91	-0.038843695
162	0xbc66794c	-0.014067005
163	0x3cc84dbd	0.024451131
164	0xbd7adc69	-0.061245356
165	0x3e85c08a	0.26123458
166	0xbce22424	-0.027605124
167	0xbd4344b5	-0.047672946
168	0xbd1889bc	-0.03724073
169	0xbe13e4c4	-0.14442736
170	0xbd8752d8	-0.06607598
171	0xbdbaf35e	-0.0912845
172	0xbdb42bb3	-0.087973975
173	0xbcdaf963	-0.026730245
174	0xbd5e7edb	-0.054320198
175	0x3e2cfe1d	0.16893812
176	0xbd47f630	-0.048818767
177	0x3ee42af1	0.44564012
178	0x3c6cab2e	0.014445109
179	0xbd63e304	-0.05563642
180	0x3cd2a5a2	0.025713746
181	0x3c41d5e8	0.011830784
182	0xbcb5f3a6	-0.022210907
183	0xbd335a18	-0.043787092
184	0xbd608bb4	-0.05482073
185	0xbc19270c	-0.009347688
186	0x3e1ed26d	0.15509959
187	0xbdd7b838	-0.10533184
188	0xbd7b9d60	-0.06142938
189	0xbcb3cdff	-0.021948813
190	0xbc72cb6b	-0.014819006
191	0xbd1e1173	-0.03859086
192	0xbd4fbe13	-0.05071838
193	0xbd1c3e34	-0.03814526
194	0xbda28398	-0.07935256
195	0xbc64304b	-0.01392753
196	0x3dadecc7	0.08492427
197	0x3cc9d647	0.024638308
198	0xbd0cd028	-0.0343782
199	0xbd5672f6	-0.05235573
200	0x3c54ef8a	0.012996564
201	0xbd28e363	-0.041232478
202	0xbdc89f57	-0.09796017
203	0x3a5fb0ee	0.00085331395
204	0x3e9ae7c9	0.30254963
205	0xbd68f532	-0.05687446
206	0xbd88bda1	-0.06676794
207	0xbd507cd0	-0.05090028
208	0xbc23f59e	-0.01000729
209	0xbd0efab0	-0.034907043
210	0xbd47c115	-0.04876812
211	0xbcbb0dc8	-0.02283372
212	0xbd76fb3f	-0.0602982
213	0xbd7df27f	-0.06199884
214	0xbd02bfc5	-0.031921167
215	0xbd00b0a4	-0.031418458
216	0x3c1c8f38	0.00955563
217	0xbdf2d63c	-0.11857268
218	0xbd6b84e4	-0.05749978
219	0xbb900cf6	-0.0043960763
220	0xbd5142e7	-0.051089194
221	0xbd0415ef	-0.03224748
222	0xbc26f1fe	-0.010189531
223	0xbc30918a	-0.010776887
224	0xbda09d07	-0.078424506
225	0xbdae7baf	-0.085196845
226	0xbd8adcaa	-0.067803696
227	0xbd4369de	-0.047708385
228	0xbd32cf96	-0.043655
229	0x3ca55bab	0.020185312
230	0xbe130271	-0.143564
231	0x3c83889d	0.016056353
232	0xbd6fbbed	-0.05852883
233	0x3cdb5c92	0.02677754
234	0x3c59dd79	0.013297432
235	0xbd270921	-0.04078019
236	0xbde8e320	-0.11371446
237	0xbd230781	-0.03980208
238	0xbc24f000	-0.010066986
239	0xbd9bba02	-0.076038375
240	0xbd411cd4	-0.047146633
241	0xbd5168ba	-0.051125266
242	0xbd4eacaa	-0.050457634
243	0xbd346e3f	-0.04405045
244	0xbda710a0	-0.08157468
245	0xbc0b3049	-0.008495399
246	0xbc7387ca	-0.014863918
247	0xbd40562c	-0.04695718
248	0xbb1a3da8	-0.0023535285
249	0x3b6e9bda	0.0036408813
250	0xbcc0e10b	-0.023544809
251	0x3c6b3182	0.014355065
252	0xbc642828	-0.01392559
253	0xbd3c1903	-0.04592229
254	0xbd8624fc	-0.06550023
255	0xbc544d90	-0.0129579455

fc3.weight f4 [1, 300]
0	0x3c5eaa9b	0.01359048
1	0x3d0535d7	0.03252205
2	0xbcb39de4	-0.021925874
3	0xbc326bac	-0.010889929
4	0xbb62ef99	-0.0034627675
5	0x3b0ac31b	0.002117342
6	0x3d0d8dfa	0.034559228
7	0xbd00dca3	-0.031460416
8	0x3db08c5b	0.08620521
9	0x3e17ad1e	0.14812133
10	0x3b90df60	0.0044211596
11	0x3c9ab326	0.018884253
12	0x3c804e8f	0.01566246
13	0xbc643ff0	-0.0139312595
14	0x3ec03975	0.37543836
15	0xbce9cfcd	-0.02854147
16	0xbcbb640a	-0.02287485
17	0x3e8e7c31	0.27829126
18	0xbc8a1c2f	-0.016859142
19	0xbce59621	-0.028025689
20	0xbc9145b0	-0.017733425
21	0x3e0447e1	0.12918045
22	0xbe963d15	-0.29343477
23	0x3f99bdd5	1.2011057
24	0x3c9d2b4d	0.019185686
25	0x3bcb7326	0.006208795
26	0xba169c47	-0.0005745333
27	0x3ba36eff	0.004987597
28	0x3b831f81	0.0040015583
29	0x3c4c72d2	0.012478547
30	0x3c9d86ce	0.019229319
31	0x3e3eb60b	0.18624131
32	0xbd084c81	-0.033276085
33	0xbcd61551	-0.026133211
34	0x3e13b938	0.14426124
35	0x3c12c43b	0.008957918
36	0x3c0b2a6b	0.008494
37	0x3c16b968	0.009199478
38	0x3c6d8c6d	0.014498812
39	0xbb4e3b65	-0.0031468507
40	0x3c6baba3	0.014384183
41	0xbbd167d8	-0.006390553
42	0x3c7ad7dd	0.015310255
43	0x3f89eb8b	1.0775007
44	0x3a851361	0.001015287
45	0xbd14d936	-0.03633996
46	0x3a64755f	0.00087149994
47	0xba682c88	-0.00088567333
48	0x3ccf785b	0.025325945
49	0x3eab093e	0.3340549
50	0x3e8f8a0f	0.28035018
51	0xbf930487	-1.1485757
52	0x3b757b59	0.0037457554
53	0xbc8c54b8	-0.01713024
54	0x3b44e12f	0.0030041446
55	0xbbce87e9	-0.006302823
56	0xbcf9c221	-0.030488076
57	0xbb40d5cd	-0.002942431
58	0xbcf3765c	-0.029719524
59	0xbbb26a4a	-0.0054447995
60	0x3babc1cb	0.005241608
61	0xbba5a1ab	-0.0050546727
62	0x3cd9ac38	0.026571378
63	0x3c9a1467	0.018808557
64	0xbbb7e884	-0.005612435
65	0xbcda5a06	-0.026654255
66	0x3e9cd9b6	0.3063485
67	0x3cb8cd2b	0.02255877
68	0x3cd6f200	0.026238441
69	0x3bcb6cf9	0.006208059
70	0x3cda2530	0.02662906
71	0x3a9611cb	0.0011449395
72	0xba333b4b	-0.00068371434
73	0xbc6d7d1e	-0.014495162
74	0x3d15f3eb	0.03660957
75	0x3b22d6c5	0.002484725
76	0x3cafd975	0.021465996
77	0x3eae2f9e	0.34020704
78	0xb9897a9e	-0.00026222033
79	0xbceebf2c	-0.029143892
80	0xba8f921d	-0.0010953579
81	0x3f70b1be	0.94021213
82	0xbbb03864	-0.005377816
83	0x3ccb8025	0.024841378
84	0xbbeaec56	-0.0071692867
85	0xbd11ac88	-0.03556493
86	0xbb1c7732	-0.0023874757
87	0x3d12fbb7	0.035884585
88	0x3cec66e8	0.028857663
89	0xbbefc73e	-0.0073174527
90	0xb9021c80	-0.00012408383
91	0x3c649f4e	0.013953997
92	0x3ca89bae	0.020582046
93	0x3c71d8f5	0.014761199
94	0xbc8a27ae	-0.016864624
95	0xbc0401a7	-0.008057035
96	0xbce5589a	-0.02799635
97	0xbbda0e80	-0.0066545606
98	0xbbb8079b	-0.005616141
99	0xbc32ffa9	-0.010925212
100	0x3b25d574	0.002530423
101	0xbea7c5ad	-0.32768002
102	0x3cac293c	0.021015756
103	0x3a231bf6	0.0006222123
104	0xbcbf7121	-0.023369374
105	0x3c0aba8b	0.008467327
106	0x3ebde012	0.37085015
107	0x3c1ef0cc	0.009700965
108	0x3be0e4fa	0.0068632336
109	0xb9dfdfc2	-0.00042700587
110	0x3b91b7d9	0.004446965
111	0xbb938aed	-0.004502645
112	0x3cb9904a	0.02265181
113	0x3cb75090	0.022377282
114	0xbce3338f	-0.027734546
115	0x3a860228	0.0010224031
116	0x3d1f7d14	0.038937643
117	0x3ca02ac4	0.019551642
118	0xbe18b09c	-0.14911121
119	0xb90fedad	-0.00013726084
120	0x3b445b1b	0.002996153
121	0x3c2fd99c	0.010733034
122	0xbcc9d833	-0.024639225
123	0x3cdbc0f0	0.026825398
124	0xba235cad	-0.00062317663
125	0xbc36ca85	-0.011156683
126	0xbb325872	-0.0027213362
127	0x3c033832	0.0080090035
128	0xbea1dab2	-0.31612164
129	0xbc5a459a	-0.013322258
130	0x3bfff7ed	0.0078115375
131	0x3cab889d	0.020939166
132	0x3ead37fd	0.33831778
133	0xbcae681b	-0.021289876
134	0xbc3b1147	-0.011417693
135	0xbc05e194	-0.008171458
136	0x3cd58b27	0.02606733
137	0xbb101fe3	-0.0021991662
138	0x3c1db848	0.009626456
139	0x3f150282	0.5820695
140	0x3ecc12ff	0.39858243
141	0xbc47ff32	-0.012206839
142	0xbb436a36	-0.0029817945
143	0xbcc56972	-0.024098132
144	0xbcaa692c	-0.020802103
145	0xbd086532	-0.033299632
146	0x3a9309dd	0.001121815
147	0xbcdcece9	-0.026968436
148	0xbbd91c3e	-0.006625681
149	0x3cc43a39	0.023953544
150	0x3b8a283b	0.0042162216
151	0xbc0f1b51	-0.00873454
152	0xba033fdb	-0.00050067686
153	0x3bb24cb4	0.0054412726
154	0x3e6e1943	0.23251824
155	0xbc96368c	-0.018336557
156	0x3cbec9f3	0.023289656
157	0x3ceae2ab	0.028672537
158	0xbd020822	-0.031746037
159	0xbd146242	-0.03622652
160	0xbc6b55fa	-0.01436376
161	0xbc1e6043	-0.009666505
162	0xba2fbf72	-0.0006704248
163	0x36bcd6f3	5.62786e-06
164	0x3c5bf23a	0.0134244505
165	0xbea3b5d2	-0.31974655
166	0x3cabb2c2	0.020959262
167	0xbc95d25b	-0.018288782
168	0x3c286272	0.010277377
169	0xbe26c91d	-0.16287656
170	0x3c79ae66	0.015239334
171	0x3c21f58d	0.009885204
172	0x3b160bd5	0.0022895236
173	0xbcbdfa4b	-0.023190638
174	0xbcf9ec23	-0.030508107
175	0xbf5b2e18	-0.8561721
176	0xbbc5d39f	-0.00603719
177	0x3eee7ad8	0.46578097
178	0xba1a7eae	-0.00058935105
179	0x3c506918	0.012720369
180	0x39c1502d	0.00036871564
181	0x39dac8ed	0.00041729902
182	0x3caf2696	0.021380704
183	0x3c1c22bd	0.009529767
184	0xbc053489	-0.008130201
185	0xb9eee6c3	-0.00045566828
186	0xbe193d47	-0.14964782
187	0xbc997269	-0.018731313
188	0x3cadd674	0.021220423
189	0x3aac1783	0.0013129566
190	0x3aa9ba9d	0.0012949292
191	0xbcd9eb85	-0.026601562
192	0x3b2b25f6	0.0026115156
193	0x3bd8d5dc	0.006617291
194	0xbc42e563	-0.01189551
195	0xbb141fe9	-0.0022602028
196	0x3f8e0aed	1.1097084
197	0x3ccee2c9	0.025254624
198	0x3a39cbf1	0.00070875796
199	0x3cda3d5d	0.026640588
200	0xbca668c5	-0.02031363
201	0xbcd90c4d	-0.026495123
202	0xbaee7e61	-0.0018195623
203	0xbbcb55db	-0.006205303
204	0x3e1bef93	0.15228109
205	0xbcb1fb63	-0.021726316
206	0xbc3c12b5	-0.0114790695
207	0x3b619fef	0.0034427603
208	0xbb6af6b0	-0.0035852604
209	0x3b98c19b	0.0046617514
210	0xbb49246b	-0.0030691873
211	0xbc694124	-0.014236722
212	0x3c631f1b	0.013862397
213	0xbb082403	-0.0020773418
214	0x3cd3610a	0.025803108
215	0x3a8440b2	0.0010090081
216	0x3bc3f044	0.0059795696
217	0x3c82d8b4	0.015972473
218	0xbcd5925c	-0.026070766
219	0xbad5710b	-0.00162843
220	0x3babcfef	0.0052432935
221	0xbd04450a	-0.032292403
222	0xbc8716dc	-0.016490392
223	0x3b92119b	0.004457665
224	0xbca11322	-0.019662444
225	0x3d2c2e42	0.042036302
226	0xbc666aa1	-0.014063508
227	0xbb9f351d	-0.0048586265
228	0xbbddfc6e	-0.0067744767
229	0xbc4156a8	-0.011800446
230	0x3ae40fac	0.001739969
231	0xbc59ce17	-0.013293765
232	0xbaaef0dc	-0.0013346928
233	0xbc9c8126	-0.019104552
234	0xbc8787fc	-0.016544335
235	0xbc43bc3d	-0.011946735
236	0xbc66f9e4	-0.0140976645
237	0xba22fafc	-0.0006217209
238	0x3950cd34	0.0001991287
239	0x3c92fcd0	0.017942816
240	0xbc147098	-0.009060048
241	0x3ba8ddb0	0.0051533803
242	0xbc12c482	-0.008957984
243	0x3c2bbef7	0.010482541
244	0x3c747b1d	0.014921931
245	0xbbaa9712	-0.0052059973
246	0xbb080ce7	-0.0020759644
247	0x3c98cbb9	0.01865183
248	0x3b0607d9	0.0020451455
249	0x3c5d3ff3	0.013504016
250	0x3cb77ce1	0.022398414
251	0x3aabe360	0.0013114028
252	0xbb681f81	-0.0035419168
253	0x3c2358e0	0.00996992
254	0x3c49d41f	0.01231864
255	0xbc6096fc	-0.0137078725
