checkpoint_critic0.pth (torch_old, 525826 bytes, 5 tensors)

fcs1.weight f4 [400, 24]
000000 b8 d4 22 3e 9a 85 a0 3d 8d 7c 4d 3d 38 b4 5c 3c
       0.15901458 0.078379825 0.05016761 0.013470702
000010 bd 55 02 be f2 13 8f be 53 47 cb bb d9 36 c4 bc
       -0.12728019 -0.27944905 -0.006203571 -0.023951935
000020 6e 84 7b 3e 36 e1 12 3e 33 78 df bd 2b 64 a0 bd
       0.24562237 0.14343724 -0.10911598 -0.078316055
000030 de c3 e3 bd 60 71 95 be e5 a1 b0 bc 49 9f f4 bd
       -0.11121343 -0.2918806 -0.021561572 -0.11944444
000040 d6 c4 45 3e 22 a8 27 3e 5d 2b c3 bd c3 00 65 bd
       0.19313368 0.16372731 -0.09529755 -0.05590893
000050 e9 32 0c be 38 94 c4 be 69 db 52 bd f3 f4 d9 bc
       -0.13691296 -0.38394332 -0.051478777 -0.026606059
000060 ab 7d d2 3c e3 43 a2 bd c2 c1 46 3b c8 c5 2a 3d
       0.025694689 -0.079231046 0.003032789 0.041692525
000070 f9 33 8a bd 49 4a d0 bd 33 a5 d7 b8 a6 5a a2 3d
       -0.06748194 -0.10170419 -0.0001028277 0.07927446
000080 c6 d7 74 3d 9f 78 f6 3c 67 63 2a bd 18 c0 c6 bd
       0.05977609 0.030086813 -0.041598704 -0.09704608
000090 38 4f 24 bc 93 33 ca bd 37 57 02 bc 88 93 f6 bd
       -0.010028653 -0.09873118 -0.007955364 -0.12039858
0000a0 db 7f bb 3d 55 5b cd bc f0 66 d0 3c 0c c6 71 3c
       0.09155246 -0.025067965 0.02543971 0.014756691
0000b0 99 d7 9b 3d bb 4f 3c 3c 34 5b b0 bc fa 9d af 3d
       0.07609481 0.011493619 -0.021527864 0.085750535
0000c0 cf a3 00 3d 31 bc 5b 3e 25 2b 5a bd cc 8b ae bc
       0.03140622 0.21458508 -0.053263802 -0.021306895
0000d0 73 ac 0c bd cf b9 15 be c8 4c 20 bc 14 32 12 bd
       -0.034344148 -0.14621662 -0.009783931 -0.03569229
0000e0 76 99 84 3d 48 60 88 3e 13 6d 34 3d cc 74 de bc
       0.06474583 0.26635957 0.044049334 -0.027155302
0000f0 01 e4 2f bd 77 a4 1e be 60 41 b2 3c 64 55 16 3d
       -0.04294205 -0.15492426 0.021759689 0.03670253
000100 b6 1d e4 3d de ce 68 3e c0 2c ec bc 3b 13 1b 3d
       0.111384794 0.22735164 -0.028829932 0.037860136
000110 d6 17 ea bc ab 75 11 be 3d f8 51 bd 65 3a bb 3d
       -0.028575819 -0.14205043 -0.05126213 0.09141997
000120 19 ec 33 3c df 03 8d 3d 80 0b bc 3b b3 94 84 bd
       0.010981583 0.06885504 0.0057386756 -0.064736746
000130 9e b0 ed bc b2 c9 c2 bd 07 e2 32 3b 43 57 79 bd
       -0.029014882 -0.095111266 0.0027295367 -0.060874235
000140 77 3c b1 3c e1 da a3 3d f2 3c ff bc e9 c4 40 3c
       0.021635277 0.08000732 -0.03115699 0.011765697
000150 ba 9e 88 3c 7f 6b 94 bd c5 eb 8e bd bb 0f 43 3d
       0.01667725 -0.07247066 -0.06978563 0.047622424
000160 ef 5f 23 3e 2e de e1 bb 8f 6d 83 3c d6 4f 02 3c
       0.15954565 -0.006892941 0.016043453 0.007953605
000170 fc bf 26 bc 16 2a 25 bd 28 89 94 3c 2e 38 cf bc
       -0.010177609 -0.04032334 0.018131807 -0.025295343
000180 a5 e1 80 3d ec 7e c3 3d 76 e4 93 bc fc c2 1d bd
       0.06293038 0.09545693 -0.018053275 -0.03851603
000190 59 95 6a bd 93 9b f5 bb 5d 7a e6 bc be 70 e3 bd
       -0.057271335 -0.0074953525 -0.02813452 -0.11105488
0001a0 eb ff af 3d ff 3f 01 3e 04 60 b6 bc 37 be b9 3d
       0.08593734 0.12622069 -0.02226258 0.09069484
0001b0 d0 9e 0e 3d 15 93 8c bd dc 00 83 bc 7b 50 5f 3d
       0.034819424 -0.06863991 -0.01599162 0.05452011
0001c0 61 4b c7 3d 9c 5b ea 3d f2 ce 1c 3c 69 89 93 bc
       0.09731174 0.11443254 0.009570824 -0.018009858
0001d0 1a c2 cf bc da d0 e7 bd 61 fe 87 bc ef d5 bf 3c
       -0.02536111 -0.11319132 -0.01660079 0.023417441
0001e0 43 f1 95 3d fc 55 34 bd bb 05 c7 bc a0 1a c1 3c
       0.07321408 -0.044027314 -0.024294725 0.023572266
0001f0 f5 1c 26 bb 2f 30 bf bc 41 7f ce bb b4 63 40 3d
       -0.002534685 -0.023338405 -0.006301791 0.046970084
000200 fe 65 f1 3d 0b 2a ca 3c 09 b0 11 3c e2 c6 b0 bc
       0.117870316 0.02467825 0.008892068 -0.02157921
000210 c2 61 84 bb ae 45 03 bd 62 0a 47 3b f2 11 d5 bb
       -0.004039974 -0.032048874 0.003037118 -0.0065023834
000220 9e ad c8 3d 5c ca a9 bc c1 48 6e 3c 48 ca 91 ba
       0.0979874 -0.020726375 0.014543713 -0.0011122907
000230 da 11 1b 3b 1d 32 52 3c 1c d1 40 bd 41 83 a7 3b
       0.0023661763 0.012829331 -0.047074422 0.005112082
000240 cc 64 fb 3d cc 74 5d 3e bb f0 82 bd 1e 6f 6f 3d
       0.12275085 0.21626586 -0.06393572 0.05845558
000250 bd f6 22 bc 45 39 1a be eb 2b a1 bc 01 7f 69 3b
       -0.009946522 -0.15060909 -0.019674262 0.0035628679
000260 a8 a0 9c 3d d7 c1 0d 3e a6 68 20 bb 3f ce 83 3c
       0.0764783 0.13843475 -0.0024476438 0.016089557
000270 39 f3 fc 3c 74 0c 0c be 2b ac 50 bb da 88 90 3d
       0.030877696 -0.13676625 -0.0031840901 0.07057352
000280 2d 9f 1e 3e be 89 70 3e c6 08 c3 bc e4 35 de 3d
       0.15490408 0.23490044 -0.023807894 0.108501226
000290 42 9e 13 bd 8d 8f e5 bd c2 32 b0 3b e8 07 c4 3d
       -0.0360396 -0.11209021 0.0053771446 0.095718205
0002a0 66 c8 a3 3d 36 45 c6 3d 0d 57 0b be 38 91 22 bd
       0.07997207 0.0968117 -0.13607426 -0.039689273
0002b0 1c 30 4a 3e 3e 6a 22 3e 7e f7 12 be 0e 66 b5 bd
       0.19744915 0.1586084 -0.14352223 -0.08857356
0002c0 76 32 33 bc 5e 0c 89 3c 59 40 92 bd 29 3b 58 be
       -0.010937324 0.01672953 -0.071411796 -0.21116318
0002d0 96 ee ff 3d 0e b5 f6 3d 2f 0a 90 bd 5e d6 40 be
       0.124966785 0.12046252 -0.07033192 -0.18831775
0002e0 f2 bc d3 3d 27 32 29 3e 2b 02 3a be 15 c3 d5 bd
       0.10338773 0.16523038 -0.1816489 -0.104375996
0002f0 33 f4 e2 3c 62 be e1 bb 95 dc 08 be d2 b2 20 be
       0.027704334 -0.0068891505 -0.13365395 -0.15693215
000300 6d a0 8e 3d 06 0b 9d 3e e9 27 19 bd 2a 2a 15 3e
       0.069641925 0.30672473 -0.037391577 0.14566866
000310 4c 7b 69 bc 40 2c 0f be 5b 6f 6a bc 80 80 ba 3d
       -0.014250588 -0.13981724 -0.014308776 0.09106541
000320 0b 17 d4 3d 4e 72 90 3e fb 69 6b 3c 9d 49 2c bb
       0.103559576 0.28212208 0.014368529 -0.0026288994
000330 09 17 1a bd 9a 03 87 be c2 8c 4a bd af a2 c1 bc
       -0.037619624 -0.26369935 -0.049450643 -0.023637144
000340 2b c4 f4 3d cf 0f bc 3e 16 64 a2 3c dd 49 f3 3c
       0.119514786 0.3673081 0.019823115 0.029698307
000350 29 87 b9 3c 4e b6 98 be 91 40 b6 bc f1 bb 80 bc
       0.022647457 -0.29826587 -0.022247585 -0.015714617
000360 df 32 3f bb f5 51 68 3e 5b 9e 5d bd 18 56 7d 3e
       -0.0029174609 0.22687514 -0.054106098 0.24739873
000370 f8 0b 92 3e 6f 90 8b bd bc f3 e7 bd 6a 7e 88 3e
       0.28524756 -0.06814658 -0.113257855 0.26658946
000380 9f 06 b5 3b 40 88 0e 3e 34 3b 0e bc e5 c2 4c bc
       0.005524471 0.13919163 -0.008681107 -0.012497638
000390 4b 7e 45 3d 75 31 dd bd 5d 91 a2 bd 75 c9 00 3c
       0.048216145 -0.10800449 -0.07937882 0.007860531
0003a0 a9 e2 be 3d 74 3e 79 3e 0b 83 c8 bb 21 53 83 3d
       0.09320576 0.2434023 -0.006119137 0.0641234
0003b0 3a c7 92 3d 1a 83 0c be e0 a3 b5 bc 46 af 9f 3d
       0.07166906 -0.13721886 -0.022172868 0.07797103
0003c0 b8 5a 09 3c cd 36 ad 3b 7c 10 f6 38 4b f8 3d bd
       0.008383445 0.005286074 0.000117332645 -0.04637937
0003d0 79 cf 4f bd 67 d2 5c bd b7 96 1b bd 95 56 86 bd
       -0.05073497 -0.053911593 -0.03798553 -0.06559483
0003e0 dc 51 21 3d 36 23 0f 3d 27 00 a6 3b 1a 69 d4 bc
       0.039384708 0.03494569 0.005065936 -0.025929023
0003f0 5a 00 7e 3c 9f 2b 98 bd d5 ce f3 bc e7 e7 09 bc
       0.0155030135 -0.07430195 -0.029761711 -0.008417106

fcs1.bias f4 [400]
000000 80 54 87 be 7b ba 3a be a1 13 2c be 53 ce f2 bd
       -0.26431656 -0.18235199 -0.16804363 -0.118557595
000010 0e 6b ea bd bf f4 f1 bd 77 cd 9c be 0f f5 cf bd
       -0.114462 -0.1181426 -0.30625507 -0.10154163
000020 35 65 e3 bd 73 5f 55 be 3e f2 f8 3d d0 da 69 bd
       -0.11103288 -0.20837192 0.12155579 -0.05709344
000030 fe e9 18 3a bb fe e6 3d d9 b5 6f bc cc 08 6b be
       0.00058332074 0.11279055 -0.014630758 -0.22952574
000040 21 3f 6b bc 7e 58 37 3d cd 99 68 bd 2a 91 4a be
       -0.014358313 0.044762127 -0.0567873 -0.19781938
000050 59 1d e0 bb a3 fe 0b bf 3c 7a 6b 3d ee 40 5d 3c
       -0.006839436 -0.5468542 0.05748962 0.01350425
000060 f0 7d 09 bd e5 63 ec bc 59 2b d3 be 0b 59 11 3e
       -0.03356737 -0.028856227 -0.4124401 0.14194123
000070 32 b4 85 be 6a 4d 59 be 71 7a 25 b8 ff 83 d1 bc
       -0.2611404 -0.21220937 -3.9453098e-05 -0.025575636
000080 08 fa d6 bd 8f 71 01 3e db ad 33 be 3d ac 2b 3c
       -0.104969084 0.12640975 -0.1754679 0.0104780765
000090 ac 8c 3e be 2f 45 0b bd 12 ce ab be 60 19 52 be
       -0.1860835 -0.034001525 -0.33555657 -0.20517492
0000a0 1f 2e 1e be ce 4e 5a 3d 52 41 6b be 1b 8b 00 be
       -0.15447281 0.05329781 -0.22974136 -0.12553065
0000b0 0d 77 29 3e 19 18 c1 3d f3 15 0a be c3 cc c7 be
       0.1654932 0.094284244 -0.13484935 -0.39023408
0000c0 90 9a ec 3d 8c cb 0c 3e a1 8b 8c bd 03 1b 41 be
       0.11552918 0.13749522 -0.068625696 -0.1885796
0000d0 e8 80 34 be 3f 0b a3 3b 01 ce 10 be 70 69 60 be
       -0.17627299 0.004975706 -0.14141084 -0.21915221
0000e0 bd b3 e0 bd 57 4a 9e bd 8a a9 90 bd b3 02 30 be
       -0.10971782 -0.07729023 -0.07063587 -0.1718853
0000f0 16 5a a8 be 66 e4 cb be 83 89 25 be ca 50 58 be
       -0.3288123 -0.39822692 -0.16165738 -0.21124569
000100 a8 8d 28 be 2f 24 7a be 55 ad 85 bc d6 30 a0 be
       -0.16460288 -0.24427865 -0.016318003 -0.3128726
000110 8d 1b 51 be eb b8 de bd d7 f3 82 3c ef ef 23 bc
       -0.20420666 -0.10875114 0.015985413 -0.010005935
000120 09 a5 7c bd 74 0a 86 3e 60 ee f5 bd 21 9c 2c be
       -0.061680827 0.2617985 -0.12008357 -0.16856433
000130 8f d7 d0 bd b0 f8 46 be 5a 26 80 bd 6b 28 b4 bd
       -0.101973645 -0.19430804 -0.06257315 -0.087967716
000140 4d 9e 5a bd a5 27 54 3a 92 96 c7 3d ec f2 da bc
       -0.053373624 0.00080930657 0.09745516 -0.026727162
000150 aa 12 8b be 1b 19 dd bd fc ea 37 be 70 d9 34 be
       -0.27162677 -0.10795804 -0.17960733 -0.17661071
000160 30 63 99 be 25 11 c4 bd 3a 71 1f 3d 28 38 ed 3c
       -0.29958487 -0.095735826 0.03892634 0.028957441
000170 a6 2b c5 bd fd 88 a8 3b 5b 9b c7 bd 7f 15 0f bf
       -0.09627466 0.0051432834 -0.097464286 -0.55892175
000180 14 f7 02 3e 9d 0e 02 be 2c 71 e8 be b0 b0 31 be
       0.12789565 -0.12700887 -0.45398843 -0.17352557
000190 ec 65 a0 bc 94 6e 14 bd be d4 31 be 95 66 f2 bd
       -0.01957985 -0.036238268 -0.17366311 -0.11835972
0001a0 0a a6 51 3e 7c 97 74 be ac 28 77 be d3 e1 94 be
       0.20473495 -0.23885912 -0.24136609 -0.2907854
0001b0 dc 72 23 be 88 67 f6 3d 4b f9 8f 3d cd 3c 4d b9
       -0.15961784 0.12031466 0.07029971 -0.00019572974
0001c0 f2 29 9d bd 38 98 e7 3b 44 b5 84 3d b8 1b 4c be
       -0.07674016 0.0070677064 0.06479886 -0.19932449
0001d0 61 af f1 bd 53 d0 b2 be ca 5a a7 3c f6 8e f8 bb
       -0.11801029 -0.34924564 0.020429034 -0.0075854016
0001e0 86 4a 35 be b8 90 77 3e e2 5e a5 bc ac ce 54 be
       -0.1770421 0.241763 -0.020186845 -0.20781964
0001f0 3a 71 2c 3d bd 31 09 bf 2f a9 94 bd 59 cf ab bd
       0.04210017 -0.5359152 -0.07258832 -0.08389158
000200 47 6b 96 3d d3 20 f6 be 9c e5 97 3c 5f 05 95 bd
       0.0734468 -0.48071918 0.018542103 -0.07276415
000210 77 78 27 be b3 2c cd bc 29 3c eb bc e4 50 27 be
       -0.16354547 -0.025045728 -0.02871521 -0.16339451
000220 0e cf 6d bd f2 f4 fa 3e 8b 9d e0 bd 10 2a e0 bc
       -0.05805879 0.49015003 -0.10967549 -0.027363807
000230 71 d7 5a be 16 b3 1f be 97 02 a4 bd c7 37 7a 3c
       -0.21371247 -0.1559566 -0.080083065 0.015272087
000240 3a 72 c7 bd 72 b7 c3 be ff 8a 66 be 9b 59 95 bd
       -0.09738584 -0.38225895 -0.2251396 -0.072924815
000250 1c 1c 92 be 5c 5b ce bd af 99 de b9 33 1b 9f 3d
       -0.2853707 -0.10076019 -0.00042457643 0.0776886
000260 ff 54 dd 3b 44 27 4b be 1e f0 8d be 2a 89 6d bd
       0.006754517 -0.19839197 -0.27722257 -0.057992138
000270 34 b9 25 bc 0a 01 23 be df cc 9f 3d 74 d9 9d be
       -0.010114957 -0.15918365 0.07802748 -0.30829966
000280 6f e2 9b b9 9d ca d0 bc 53 43 0c 3d 00 3e fe bd
       -0.0002973261 -0.025487239 0.034243893 -0.12414169
000290 35 a2 7e be e8 53 81 3e 7b 15 db bd fd a0 b4 be
       -0.24866565 0.25259328 -0.106974564 -0.35279074
0002a0 f6 ef 3f be 22 89 d5 3d 3d 8d 31 be d2 03 d7 3b
       -0.18743882 0.10426547 -0.17339034 0.0065617347
0002b0 5c 48 67 be 66 fe ac bd 5b f4 07 be a9 54 a4 bd
       -0.22586197 -0.0844696 -0.13276808 -0.0802396
0002c0 16 eb 77 be a4 fa cf be 6b 60 91 bd 0a b1 7a 3d
       -0.24210772 -0.4062091 -0.070984684 0.061203994
0002d0 8f 44 26 bd 10 77 b9 bd b9 6e 4f be 64 e8 87 3e
       -0.040592726 -0.090559125 -0.20257081 0.26544487
0002e0 ef 15 82 bd 30 cf cb 3d a4 91 af 3c 39 a0 14 3e
       -0.0635184 0.09951627 0.021431752 0.14514245
0002f0 9e 4b 4e 3c 13 35 ce be 64 c1 ca 3e d5 32 d4 bd
       0.012591271 -0.40274867 0.3960067 -0.10361258
000300 2e 56 a5 3d 40 18 25 3b fb be b0 bc 67 0d 0d be
       0.08073078 0.0025191456 -0.021575442 -0.13774644
000310 d3 67 92 3c 2c 39 ff bd a6 5b a7 3c a6 9d 01 be
       0.017871773 -0.124620765 0.020429444 -0.12657794
000320 d2 f7 12 be a2 d8 90 be 79 29 84 be 6a 1a cb be
       -0.14352348 -0.28290278 -0.2581289 -0.3966859
000330 e0 d4 a4 be a5 74 00 3e 92 f8 d8 bd b8 8c b1 be
       -0.3219366 0.12544496 -0.10594286 -0.34677672
000340 da 06 28 be 67 59 6e be c4 c3 b0 3c ff 4b cc 3d
       -0.16408864 -0.23276292 0.021577723 0.099754326
000350 73 20 c8 3c 95 ec a1 be 63 74 4a be 28 bb 82 be
       0.024429535 -0.3162581 -0.1977096 -0.25533414
000360 c0 ee 3c 3d c5 a7 6a 3d e9 9b 61 be c3 4d c9 3d
       0.046126127 0.057288904 -0.22032131 0.09829285
000370 a7 10 25 be b5 e3 85 be 98 42 80 bd 1c 31 01 bf
       -0.16119634 -0.2615029 -0.06262702 -0.5046556
000380 77 ab e3 be be a5 00 3e 53 06 9f be 3e 3a 60 be
       -0.44466755 0.12563226 -0.31059512 -0.21897218
000390 e3 52 d1 bd b1 ec 0c 3e d3 2b d3 bd d1 2d c6 3d
       -0.102208875 0.13762166 -0.10311093 0.096767075
0003a0 67 93 ff be d1 21 45 be e5 8b fc 3d 11 4e eb 3d
       -0.49917147 -0.19251181 0.1233137 0.11489499
0003b0 64 f4 b1 3e ec 35 39 3d 57 9f ea bd 14 ec 37 3e
       0.34756768 0.04521744 -0.11456173 0.1796115
0003c0 01 96 4c be a2 60 13 be 67 90 da 3d 01 6d 22 bd
       -0.19979097 -0.14392331 0.10672074 -0.039654735
0003d0 50 32 d3 3d 9d 23 30 bd 72 4a fd 3e aa f0 f1 3d
       0.10312331 -0.043002713 0.4947086 0.11813481
0003e0 e4 e8 79 be 9d 03 0c be b8 0c e4 bd 9e 52 99 3e
       -0.24405247 -0.13673253 -0.111352384 0.29945844
0003f0 3f 5a 9e bd a0 54 62 3d 65 b0 8a bd 75 e8 38 bd
       -0.07732057 0.055256486 -0.06771926 -0.045143563

fc2.weight f4 [300, 402]
000000 00 84 16 3c 00 24 11 3d 1f ca ef 3c dd c9 e4 ba
       0.009186745 0.035434723 0.029271184 -0.001745518
000010 86 e1 93 3c 13 a7 91 bc d4 d3 0c 3d bc a5 7d 3d
       0.018051874 -0.017779863 0.034381703 0.061925635
000020 44 fb d9 3c b8 fa 6b 3c da 8a 24 bd 8a 83 0a 3c
       0.02660907 0.014403038 -0.04017148 0.008454213
000030 d5 c6 31 3d c1 b0 14 3c 82 43 ff bc 18 77 c7 bd
       0.04340251 0.009075345 -0.03116012 -0.09739512
000040 f2 bc 4b 3c bd 1e 3a 3d 0d e4 d3 bc a3 78 eb bd
       0.012435185 0.04543947 -0.025865579 -0.11497619
000050 95 73 f7 3b ae a8 51 bd 7c 7a 67 be f5 e1 1a bd
       0.0075516202 -0.051186256 -0.22605318 -0.037813146
000060 65 7b 52 3c 66 03 3e bd 06 e1 9f be 9a ed 82 3d
       0.012846802 -0.04638996 -0.31226367 0.06392975
000070 7a d4 29 bd 71 fb 3d bd 70 cf 90 bc 5e e2 ee bc
       -0.0414624 -0.04638237 -0.017677039 -0.029160675
000080 f9 fa 41 3c 65 61 92 bc 2d 31 11 bd f3 1a 20 3d
       0.011839622 -0.017868707 -0.03544729 0.0390882
000090 c3 db a4 bd 86 8d 63 3c 3c 78 31 bd 04 8d d2 bc
       -0.08049729 0.013888722 -0.043327555 -0.025702007
0000a0 71 5a f3 bc b9 7d 0a 3c c0 86 09 bd e2 fc 27 bd
       -0.029706212 0.008452826 -0.033575773 -0.041012652
0000b0 f5 74 53 be 99 4d 7b bd b0 ee 2f bd 46 b4 28 be
       -0.20650084 -0.0613533 -0.04295224 -0.16475019
0000c0 97 bb f8 bd 75 e9 da bd 23 1a d3 3c 33 8b 25 be
       -0.12145155 -0.1068906 0.025769299 -0.16166382
0000d0 94 69 b1 3c ca 3e 5b bd 83 34 ef 3c 2a 3e b1 3c
       0.021656789 -0.053526677 0.029199844 0.021636087
0000e0 7a fe dc 3c dd 66 3d 3d 80 b2 04 3d 70 0c 38 3c
       0.026976813 0.046240676 0.032396793 0.011233434
0000f0 29 d0 a8 bd ab cc 61 bd 3e da 85 3c ba 32 6c bd
       -0.082428284 -0.055126827 0.016339418 -0.057665564
000100 20 47 5a bc e6 38 85 bd 8d c1 47 bd 6b 5c 45 3d
       -0.013322622 -0.06504993 -0.04876857 0.04818384
000110 6a c9 33 3d fa 06 15 bd f2 b7 e6 bc 19 29 cc bb
       0.043893255 -0.036383606 -0.028163884 -0.006230485
000120 05 73 ff bc 92 89 d4 3b 55 e8 49 bd 31 db 0d be
       -0.031182775 0.006486126 -0.049293835 -0.13853146
000130 15 aa 3d bd 40 c0 19 bd 6e 9b c8 bc 47 c3 db 3c
       -0.04630478 -0.03753686 -0.024488177 0.026826514
000140 ba c0 dc 3c fa b3 5f be ab bf f5 bc a8 91 63 bd
       0.026947368 -0.21846 -0.029998621 -0.05555883
000150 7d c0 1a bd 70 49 86 3c 5c b3 3c 3d 01 2e 4f 3c
       -0.037781227 0.01639244 0.046069488 0.0126452455
000160 80 67 e6 3c ad dc f9 bb 6e ab c7 bc 45 6b 8d 3c
       0.028125525 -0.0076251836 -0.024373736 0.017263064
000170 cf 59 62 be b9 3e e1 3c 0c 87 1d 3e 72 36 75 bb
       -0.22104572 0.027495729 0.15383548 -0.0037416485
000180 41 8b 62 bd bd cf 59 bc f8 81 19 bf 7a f0 56 bd
       -0.055308584 -0.013294158 -0.5996394 -0.05247543
000190 88 af 1a be 22 b5 27 bd d6 9c aa be 2d ec 83 3c
       -0.15106022 -0.040944226 -0.3332278 0.016103828
0001a0 8e 01 21 be 93 f3 8f 3d 4d 14 12 bd c8 b0 1d 3c
       -0.1572325 0.0702888 -0.03566389 0.0096246675
0001b0 00 cd 6e 3a b2 a8 35 bd f7 e4 81 be 08 de 1a 3c
       0.0009109527 -0.044350334 -0.2537 0.00945235
0001c0 42 c1 26 3d fc 8c 35 3d 5f 4c a4 bd ab fb 35 bd
       0.04071165 0.044323906 -0.08022379 -0.044429462
0001d0 10 02 4c bd 68 2d 26 bd 0a 74 42 3b db 6b 10 3d
       -0.049806654 -0.040570647 0.0029671215 0.03525911
0001e0 33 60 54 ba b1 cc 1b be 63 a9 99 be ae 87 c0 bd
       -0.0008101493 -0.15214802 -0.30012044 -0.09400879
0001f0 3f ba 6e 3d 5f dd 05 be 71 0c e4 bd db ac 4c bd
       0.058283087 -0.13072728 -0.111351855 -0.049969535
000200 06 fb c5 3c 54 cd 34 be c7 c6 5b bc 5e bc 2e be
       0.024167549 -0.17656451 -0.013414091 -0.17064044
000210 15 51 df 3c ae fb 32 bc ac b5 0b 3d 29 36 87 3c
       0.027260343 -0.010924263 0.034108803 0.016505318
000220 cf 5f b4 bc 59 82 49 bb 7a c1 12 bd 5d 5a 3c 3d
       -0.022018341 -0.003074786 -0.035829045 0.045984615
000230 b7 73 9b bd 8a 3b ef bc 3a 85 ed 3c 17 95 26 bd
       -0.0759043 -0.029203195 0.028994191 -0.040669527
000240 fb 4f 7c bd d5 3c 13 be 8d 82 3f 3c e2 69 4f bd
       -0.061599713 -0.14378674 0.011688841 -0.050638087
000250 4f db 3d 3c f7 c0 4d 3d 34 41 36 bd 21 23 2d bd
       0.011587932 0.050232854 -0.044495776 -0.04226983
000260 10 e1 01 be f5 8e 9e be 65 03 45 bc d6 0e 08 bd
       -0.12683511 -0.30968443 -0.012024735 -0.033217274
000270 e4 4e 28 bb 68 d9 1d 3c 35 c2 34 3c a1 7d 57 bc
       -0.0025681788 0.009634353 0.011032631 -0.013152511
000280 92 7c 07 be 5b 47 0c be a4 b7 67 bc 67 12 7a bd
       -0.13231114 -0.13699095 -0.014142904 -0.061052706
000290 f3 60 1e bd 8f ba 98 bd 31 43 35 bd 3d 67 20 be
       -0.038666677 -0.07457458 -0.04425353 -0.15664382
0002a0 68 c3 ee bc 92 4c 19 bc f6 ff af bc 62 f4 2e 3d
       -0.029145911 -0.009356635 -0.021484356 0.04271353
0002b0 30 f7 20 bd 54 03 25 bd 91 a5 ab bd 32 16 4b bd
       -0.039298236 -0.040286377 -0.08381189 -0.049581714
0002c0 7f e5 a8 be e5 96 4d be ca f7 b9 3c 52 95 b4 bb
       -0.32987592 -0.20077093 0.022701163 -0.0055109644
0002d0 27 6d 23 3d 4b 90 35 3c 7e 4b 09 be e5 40 ae bd
       0.039899018 0.011081765 -0.13407704 -0.085084714
0002e0 ac e7 ae bd 6d 52 84 bd 75 02 99 bc 7b 7c 5a 3c
       -0.08540282 -0.06461034 -0.01867793 0.0133353425
0002f0 c3 ff 27 bc df 61 e8 bd cb 94 1f bd 30 e7 ad 3c
       -0.010253849 -0.113467924 -0.03896026 0.021228403
000300 b9 e1 9b be 53 f0 3c 3b 3f 0b 9d 3c 79 d8 19 bd
       -0.3044565 0.0028829768 0.019170402 -0.03755996
000310 c7 fd 3b bc b9 d6 22 3b ce 9c 8b ba b2 4f 6e 3d
       -0.011474079 0.0024847223 -0.001065159 0.058181472
000320 78 14 86 bd 56 3b 52 bd 57 46 26 3b 8a d2 e8 be
       -0.06546873 -0.05132612 0.0025371516 -0.4547313
000330 86 dd 83 bd 88 b2 1d 3d 5f 62 00 3d 6e c8 0d be
       -0.064387366 0.03850034 0.031343814 -0.13845989
000340 16 0a 6d bd 96 75 92 3d a5 28 8e bd 0d d0 4f bd
       -0.057870947 0.07151334 -0.06941346 -0.050735522
000350 1c b8 48 3c e3 b4 7f 3d 2e cc 1a bc 74 bc 3c bd
       0.012250926 0.062428366 -0.009448094 -0.04607816
000360 6d 4b 0e be 0c 44 07 3c fd 7e 61 bd 23 57 3b bd
       -0.1389596 0.00825597 -0.055052746 -0.045737397
000370 9f e8 84 3d bf 59 15 3a fc e1 a9 3c bc af 0f bf
       0.064896815 0.0005697272 0.02073764 -0.56127524
000380 39 c6 1e be e5 df 9b bb 79 d1 88 bd e8 94 8e bd
       -0.15505303 -0.004756915 -0.06680579 -0.06961995
000390 ee 26 27 bd 75 28 69 bc 44 b1 43 be cb e5 a6 bb
       -0.04080861 -0.014230837 -0.1911059 -0.0050933114
0003a0 cf d6 b2 bd 21 c6 24 3e c9 63 1c 39 5f e9 47 bd
       -0.08732378 0.16091205 0.00014914492 -0.048806544
0003b0 33 d6 08 bd e7 c6 55 bd ed f1 7a 3b e9 ac d4 bd
       -0.0334074 -0.05219164 0.0038291172 -0.103845425
0003c0 72 a4 df bc 37 8d 39 3b 4f 1e bc 3c e4 3c da be
       -0.027300093 0.002831293 0.022963671 -0.4262458
0003d0 5a ec 35 3c 16 fe 68 be 83 b6 f5 bd 7b 05 ff bb
       0.011103714 -0.22753176 -0.11997702 -0.0077826357
0003e0 28 72 dc 3c ac 96 3b bc f5 80 7a bd 84 c7 8d bb
       0.026909903 -0.011449497 -0.06115814 -0.0043267626
0003f0 91 41 9d bd bb 1e c7 bc e8 2a 9b ba ef 96 52 bd
       -0.076785214 -0.024306646 -0.0011838349 -0.051413473

fc2.bias f4 [300]
000000 fe e5 23 be d8 64 f3 bc 36 27 b2 bc 33 da 8e bd
       -0.16005704 -0.029711172 -0.021747213 -0.06975212
000010 03 60 bb bd 4b c1 c8 bd bd 6b 97 bd 68 1c 8e bd
       -0.09149172 -0.09802493 -0.07393596 -0.06939012
000020 29 9d a1 bd 46 fb 31 bd fc 15 04 be 04 78 cd bd
       -0.07891304 -0.043452524 -0.12899011 -0.10032657
000030 8f 52 82 be e7 cd 29 3e 3a de d9 bd 96 fa d6 bd
       -0.25453612 0.16582452 -0.106380895 -0.10497014
000040 06 1e 3e bd 14 35 76 bd 6d e7 83 bd 68 1b d9 bd
       -0.04641535 -0.060109213 -0.06440625 -0.106009305
000050 4e 94 6c bd db 08 a4 bd 44 70 b7 bd 68 f5 da bb
       -0.057758622 -0.080095015 -0.0895696 -0.0066820867
000060 21 81 19 3c ee b4 c7 bd b1 be f9 bd 64 68 90 bd
       0.009369166 -0.097513065 -0.121945746 -0.07051161
000070 10 a6 b7 bd d1 4d 5b bd 42 b7 5e bd d5 4e 4b bc
       -0.08967221 -0.05354101 -0.054373987 -0.012408932
000080 03 82 9f 3d c2 f7 87 bd 7a c9 de bd 7a 90 86 bd
       0.0778847 -0.06639053 -0.10878272 -0.065705255
000090 9c d4 7c bd a9 68 26 3e 93 0e 88 3a bd 1a a0 bd
       -0.061726198 0.16250862 0.001038032 -0.078176
0000a0 26 66 a8 bd 7d a6 ad bd c8 c4 dd bc f4 0d 38 be
       -0.08222608 -0.08479021 -0.027071372 -0.17974073
0000b0 16 0a 92 bd 4c 96 b0 bd fd 60 be 3d 20 c1 0b bc
       -0.0713083 -0.08622417 0.09295843 -0.008529931
0000c0 6b 8e 41 bd bd 2a 47 3d 56 02 a6 bc 67 0b 81 bd
       -0.04725496 0.048624743 -0.020264786 -0.06301003
0000d0 ba b4 22 be 39 6f ac bc 41 4b 7e bd 90 12 49 bd
       -0.15889254 -0.021049129 -0.062083486 -0.04908997
0000e0 d0 78 7f bd 28 ff b3 3e f4 6c 16 bd 86 c1 ab bd
       -0.062371075 0.35155606 -0.036725 -0.08386521
0000f0 0a 5a d4 bc fc 8f c6 bc 1e 46 02 3e 76 e2 b6 bd
       -0.02592184 -0.024238579 0.1272206 -0.08929913
000100 01 b1 0c 3e 6e f4 2e bd 79 f9 b8 3c 46 c5 43 3b
       0.13739397 -0.042713575 0.022579895 0.0029872223
000110 84 46 b7 bd 23 2a f2 bb 0c fa ff b9 9a fb 45 bd
       -0.08948997 -0.007390277 -0.0004882369 -0.04833565
000120 30 d2 a3 bd 3f 05 2f bd 00 9e ef bc 1f bd e0 bb
       -0.079990745 -0.042729612 -0.029250145 -0.0068584825
000130 e5 f1 34 3c e7 d9 cd bc d1 aa 81 bd da f1 b8 bd
       0.011044 -0.025128318 -0.06331409 -0.090305045
000140 bd e8 03 be 3c e5 af bd 8b 28 88 bd 01 ba e2 bd
       -0.12881751 -0.08588645 -0.06648358 -0.11070634
000150 a6 bd 4d bd 4a cf 36 bd c0 4e e4 bd 78 4a 76 bd
       -0.05022969 -0.04463128 -0.11147833 -0.060129613
000160 93 61 01 be 7c 0a b5 bd 0e a9 0f bd d0 d7 f2 3b
       -0.12634878 -0.0883989 -0.035073332 0.0074109808
000170 a8 44 e1 bc 0d f7 25 bd bb 6d ca bd 63 19 ed bd
       -0.027498558 -0.04051881 -0.09884211 -0.11577108
000180 1b a8 fc bc 1f d2 ee bb af 94 4d bd d0 69 8e bd
       -0.030841878 -0.007288232 -0.050190624 -0.06953776
000190 5b 40 92 bd b2 0f ac bd 17 b2 89 bd 9a 36 90 bd
       -0.07141181 -0.08401431 -0.06723421 -0.070416644
0001a0 6b 0b f1 bc dc 3d 3f be 63 a9 b8 bd d5 7a 84 bd
       -0.02942439 -0.18675941 -0.09016683 -0.06468741
0001b0 6e 53 b8 bc 0f b4 72 bd 81 a3 10 bd 6d 88 5f bd
       -0.02250072 -0.05925375 -0.03531218 -0.054573465
0001c0 db b5 e7 bd b4 f9 c7 bd 1c d2 c7 3d 2b 95 a9 3d
       -0.11313983 -0.09764424 0.09756872 0.08280405
0001d0 3d 62 af bd 74 55 fb bd 01 4a 2a be ae 45 bc bc
       -0.08563659 -0.12272158 -0.16629793 -0.022982445
0001e0 a1 1d 82 3c 47 cf f7 bd 62 a5 94 bc 31 5f c0 bd
       0.015883269 -0.12100082 -0.018145267 -0.09393156
0001f0 3b be a9 bb 97 16 96 bc d1 b2 ac bd 78 c5 9f 3d
       -0.005180148 -0.018321319 -0.08432544 0.07801336
000200 ef 5d d6 bc 0e af 85 bd 4e 00 2f bd b7 83 bb bd
       -0.026167838 -0.0652753 -0.0427249 -0.09155982
000210 a5 6e 2a bd 70 05 81 bd 86 7f a3 bc 17 67 d6 bc
       -0.041609425 -0.06299865 -0.019958269 -0.026172204
000220 68 0d 9c bd 9b 68 d5 bd 84 80 89 bd 1a fc a8 bd
       -0.076197445 -0.104203425 -0.067139655 -0.082512096
000230 a3 b5 e6 bc 56 79 b4 bd 0d 08 b3 3d 03 9a d0 3d
       -0.028162783 -0.088122055 0.0874177 0.101856254
000240 77 bd ce bc 38 a7 24 3d ca 4c 5b bd 92 60 30 bd
       -0.025236828 0.040198535 -0.05354003 -0.043060847
000250 ce ef 58 bd 53 d7 7a bd e3 bc d4 bd 70 ca ac bd
       -0.05296307 -0.061240505 -0.1038759 -0.084370494
000260 76 ac b5 bd 56 c3 59 3e 7a fe a3 bd 40 e5 62 3e
       -0.08870785 0.21265921 -0.08007522 0.22157764
000270 8a ec c7 3d 89 e3 d4 3b 13 bd 8c bd bd 61 a1 bd
       0.09761913 0.006496851 -0.068720005 -0.0787997
000280 a5 b5 a0 3c 26 2c c2 bd dd cc be bd d4 db 33 bd
       0.019617865 -0.09481077 -0.09316418 -0.043910816
000290 e4 57 6b bd 3c 19 f6 bd a5 d3 80 bd 88 b6 00 bd
       -0.057456866 -0.12016532 -0.06290368 -0.031424075
0002a0 50 69 9c bd ba c6 9f bd d4 0c 83 bd f7 d9 b8 bc
       -0.07637274 -0.07801576 -0.06398931 -0.022564871
0002b0 79 12 29 bd 81 fe 3f bc 1c 63 d1 3c 29 b6 b9 3d
       -0.041277383 -0.011718393 0.025559954 0.090679474
0002c0 5b 27 a5 bb cc 7b 00 be af ce d5 bd 6b c6 d8 bd
       -0.005040092 -0.12547225 -0.104398124 -0.1058472
0002d0 cd e1 43 3d 1e a9 d0 bd fb eb 90 bd 1c 85 e7 bd
       0.047822762 -0.101885065 -0.0707626 -0.113046855
0002e0 9e b2 16 bd 4b 77 b3 bd de f3 ac bd b4 10 0a 3b
       -0.036791436 -0.08762988 -0.084449515 0.0021067085
0002f0 53 2f cc bd ae b9 d8 bd a1 b8 cc bd 70 64 a7 bd
       -0.09969964 -0.105822906 -0.09996153 -0.08173454
000300 e9 62 00 3d 78 76 12 be b8 60 b3 bc 71 09 75 bd
       0.031344328 -0.14303005 -0.021896705 -0.059823457
000310 81 ee bf bc d6 ee cf bd 4b 05 95 bc 6a e5 9d bd
       -0.023429157 -0.10152976 -0.018191 -0.07709773
000320 b8 2f 7a bd 77 3d 92 bd 7c ca 71 bc 8b ac cb bc
       -0.061080664 -0.0714063 -0.014757749 -0.024862548
000330 a9 21 5c bd e4 22 8d 3b 33 5d 2a bd 3c 42 d7 bd
       -0.05374304 0.004307138 -0.041592788 -0.1051068
000340 50 9e 85 bd da 71 7c b9 7b 7f 7d 3c f1 5c 46 3b
       -0.06524336 -0.00024075006 0.015472288 0.00302678
000350 ac 69 52 bd 72 b8 10 3e 3d ee 96 bd 6f 4b d7 bd
       -0.051370308 0.1413286 -0.07369659 -0.10512435
000360 9a 10 03 be 3e 8c d9 bd ac 8e c5 bd d3 32 6b bd
       -0.12799302 -0.10622452 -0.09646353 -0.057421517
000370 1d ef c7 bd d5 a8 fa bd fa 35 75 bd 69 24 ac bd
       -0.09762404 -0.122392334 -0.05986593 -0.08405382
000380 e3 f3 20 bd 92 42 78 bd c8 60 6f bd 08 5d 62 bd
       -0.03929509 -0.06061036 -0.058441907 -0.055264503
000390 0b 7f c6 bd 2a 2f b1 bd 43 46 d7 3d 9f a2 8c bd
       -0.096922 -0.08651574 0.10511448 -0.06866955
0003a0 99 33 a2 3b fb b6 9f bd f0 24 13 bd d5 a5 37 3e
       0.0049499986 -0.07798573 -0.0359239 0.17934354
0003b0 83 28 ce bd 34 39 1c bd b9 45 0a be e6 d2 88 bd
       -0.10066321 -0.03814049 -0.1350316 -0.06680851
0003c0 10 76 c1 bd ce 9b bf bd 48 8e 17 be b7 01 07 be
       -0.09446347 -0.09355889 -0.1480037 -0.13184248
0003d0 0d 6a 2e bd 38 45 8b 3b b6 3c 02 bd 56 44 6f ba
       -0.042581607 0.004250195 -0.03179618 -0.00091273093
0003e0 ae ed 1f bd 16 1a b0 bd 6f 8a ce bd 8d 02 83 bd
       -0.03904503 -0.085987255 -0.10084998 -0.06396971
0003f0 7a 55 9c bd af 5e 27 bd 53 04 7a bd e3 f6 8c bc
       -0.07633491 -0.04086178 -0.06103928 -0.017207569

fc3.weight f4 [1, 300]
000000 7b 86 9d 3d fb ad f4 bc 30 76 0d bd ce 7c 9c ba
       0.07691666 -0.029868117 -0.03453654 -0.001193905
000010 b6 31 01 3d 28 2c 5f 3c 14 e4 d3 bc 02 e8 b3 bb
       0.03154155 0.0136213675 -0.025865592 -0.005490304
000020 34 1b 26 3c 95 2a 83 3c 0c 09 cc bb ea 6c d6 bc
       0.010138322 0.016011516 -0.0062266644 -0.026174981
000030 01 95 0a bd 52 67 4a be e9 cd 90 bc d6 de 35 bc
       -0.033833507 -0.19765976 -0.01767631 -0.0111004915
000040 62 28 63 3c 1b c4 51 bc e2 53 64 bb d7 e9 a4 3c
       0.0138646085 -0.012803103 -0.0034840037 0.020131035
000050 95 ab 8c bc 6c 36 9e 3a 91 55 9a 3c dc 15 62 bc
       -0.01717166 0.0012070662 0.01883963 -0.013799157
000060 42 e1 7c 3c 6f 7c 34 ba 11 bb bb bb c8 ce 68 3c
       0.015434565 -0.0006884997 -0.005729087 0.014209457
000070 58 39 ab 3a a9 15 2d bc 66 81 1e bb 3f 9c ca bc
       0.0013063354 -0.010564246 -0.0024186014 -0.024732707
000080 b2 bf a8 bd 63 3c 1c 3b c2 4b 85 3b f3 77 87 bc
       -0.08239688 0.0023839704 0.004067869 -0.016536688
000090 d8 17 b1 b8 94 52 7b 3d f9 2d 93 3c 8f 04 a3 bb
       -8.444459e-05 0.06135805 0.017966257 -0.0049749087
0000a0 b5 30 10 bd e8 0a 56 3c 4e 0a cb ba 9a 9c ef be
       -0.0352027 0.013064124 -0.0015490742 -0.46799165
0000b0 5a 4a 81 bc a9 2a 5d 3c 63 51 ec 3d 34 bc 45 3c
       -0.015782524 0.0134989405 0.11538961 0.012068797
0000c0 ba 44 6d 3c bc 13 cc 3b cc a1 47 bc fe 1c 66 bc
       0.014481718 0.0062279385 -0.0121845715 -0.014044998
0000d0 5e d7 7e bc ac 19 5a bc 90 1b 5c bc 78 c7 c3 3b
       -0.015554277 -0.013311785 -0.013434306 0.0059747063
0000e0 ca 8d b4 bb b6 e1 df 3d 6f c6 81 bc 24 c0 82 bc
       -0.0055100666 0.10931723 -0.01584169 -0.01596076
0000f0 19 0c 09 bb 5a fe 8a 3c 97 4c af 3e 64 0c 84 bc
       -0.0020911752 0.016966987 0.3423812 -0.01611919
000100 52 1e dc be 1e 56 8a bc fe 9c de be 66 d3 25 3b
       -0.42991883 -0.016886767 -0.4347915 0.0025303005
000110 db 5a fa bb 7a 1d 3f 3c c5 1c 94 3c 9a 7e a3 3c
       -0.0076402253 0.011664743 0.018080125 0.01995783
000120 a5 32 63 ba 97 23 34 bc 57 7f 9e bc 3d 34 8d bb
       -0.00086669094 -0.010994813 -0.01934783 -0.004309206
000130 cd 2d b3 39 e6 1b 76 3b 3b ce ce 3b b3 70 a7 3b
       0.00034175665 0.003755325 0.0063112057 0.0051098703
000140 9d 0d 8f be 16 06 f2 3b 44 45 1f ba 08 26 9d 3b
       -0.27940074 0.0073859794 -0.000607569 0.0047957934
000150 29 c4 c5 bc 4a 61 a0 bb b4 7d 4f bc 99 39 ae 3b
       -0.024141388 -0.0048944103 -0.012664247 0.005316925
000160 1a 03 74 bc ca 4b df 3b c3 e6 1e 3b b1 58 7c bb
       -0.014893318 0.0068144547 0.0024246431 -0.0038505013
000170 be 2b 3e 3c 17 15 a1 bb b1 97 d7 3b da 53 dc 3b
       0.011607109 -0.004915844 0.0065793623 0.006723863
000180 68 c6 cd 3c c6 7f d6 3b 73 73 82 3c 01 70 ff 3a
       0.025119022 0.0065459935 0.015924191 0.0019488336
000190 d3 55 d2 3c f1 22 1f be 4f 8a 15 bd a8 56 96 ba
       0.02567569 -0.15540673 -0.036508854 -0.0011469917
0001a0 f5 91 fc bd f4 ec 0d 3f e6 53 14 3c 9f da 9d 3c
       -0.123325266 0.55439687 0.009053206 0.019269286
0001b0 12 64 9e 3c d0 5b a4 bc 6c 81 38 3c 7a cd d9 bc
       0.019334827 -0.02006331 0.011261325 -0.026587237
0001c0 59 d5 b6 3c d7 85 33 3c 5e 42 e2 3d 82 2c dc 3e
       0.022318529 0.010957203 0.11047815 0.43002707
0001d0 bf 0a 8c bc 0b da 98 3c 86 da 45 3f 33 b1 7a 3a
       -0.017094968 0.018658658 0.77286565 0.0009563148
0001e0 98 ac 80 3b a2 80 32 3f fb 49 a5 bb e2 50 88 3c
       0.003926825 0.6972753 -0.0050442195 0.01664013
0001f0 40 d2 a4 3b bc 4c 33 3a 26 bb 6e 3c 91 79 2b 3e
       0.0050299466 0.00068397424 0.014570987 0.16745593
000200 0f 13 65 3b 97 d9 00 bc a1 14 e0 bb ce fb 12 3c
       0.0034953987 -0.007864377 -0.0068383967 0.008971168
000210 08 dd 45 3c 82 f0 40 bc f0 7c 87 bc 46 e4 98 bb
       0.012076624 -0.0117760915 -0.016539067 -0.004665884
000220 e9 13 67 3c 9f 04 14 bb 8b 99 b9 bc 8e 4d 90 bc
       0.014103868 -0.0022585762 -0.022656223 -0.017615106
000230 60 b5 c3 3c 27 d2 af 3b 39 7c 1d be f0 41 a9 3e
       0.023890197 0.0053656283 -0.15379418 0.3305812
000240 0a a4 90 3c 3c 42 95 be a3 7d f6 bc dc 62 e6 3c
       0.017656345 -0.29152095 -0.030089205 0.028123312
000250 29 78 e5 3c dd 2b 8b bc a6 71 8e ba 5e fd d2 be
       0.028011398 -0.01698869 -0.001086761 -0.4120893
000260 79 21 55 3c 1d 0d 4f 3e 50 f5 4b bc 9a c2 94 3d
       0.013008469 0.20219846 -0.012448624 0.0726368
000270 fa 8b 90 3e 20 94 d5 3d a6 da 07 3c c0 11 d1 3b
       0.28231794 0.10428643 0.008291876 0.00638029
000280 5c 6e 05 3c 8a 09 d3 3c de 71 ba 3c c7 02 15 3d
       0.0081439875 0.025761385 0.022759374 0.0363796
000290 64 51 c7 bc f2 59 60 bc c4 68 d5 3d d8 10 2f 3c
       -0.024330802 -0.01369332 0.10420373 0.010685168
0002a0 e3 03 7a bc 9f df a5 3c 01 aa 6c bb fa dd 0a bc
       -0.015259716 0.020248232 -0.0036112072 -0.008475775
0002b0 f4 b0 0d 3d 8c 6b f3 3c bb 57 77 be 32 8d 91 3e
       0.034592584 0.029714368 -0.2415456 0.28428036
0002c0 e9 2a 19 3c 9d 3f 03 bc ce fa 8c bc 4f 95 f1 3b
       0.0093486095 -0.008010772 -0.017209437 0.0073725353
0002d0 0c 05 6e bd cd 06 5e bc f9 f9 84 bc 0d ff ab 3c
       -0.05811028 -0.013551426 -0.016232478 0.020995641
0002e0 68 2c 27 3d e8 ac 99 3b f0 9a c3 3b 03 16 12 3b
       0.040813833 0.0046898015 0.0059693977 0.0022290952
0002f0 26 fa 3b bc 74 34 8e 3a c7 db cf 3c fe 4d 93 bc
       -0.011473214 0.0010849372 0.025373353 -0.017981526
000300 ce 20 9d bc 94 85 6d 3c 03 cf a0 3a bc 38 71 bc
       -0.019180682 0.01449718 0.0012268726 -0.014722999
000310 f7 09 ea bb c1 8e 06 bc d8 99 8f 3c 23 32 41 3c
       -0.007142301 -0.008212746 0.017529413 0.011791739
000320 2c 07 25 3c a3 7b f6 3c 51 49 bc 3b 0f f4 39 bc
       0.010072511 0.030088251 0.0057460447 -0.011349692
000330 95 5d c2 bc 6d 5c 5c 3a 79 fc 35 bc 00 ec 50 3c
       -0.023726264 0.00084061065 -0.011107557 0.012751579
000340 0a cf 7c 3c ed 04 7d bc ae a4 09 3c 71 05 23 3c
       0.015430221 -0.015443069 0.008401079 0.009950028
000350 a8 c1 3a 3c 12 e7 18 3e ef 82 a0 bc 15 ef 0f bf
       0.01139871 0.14931896 -0.019593684 -0.56224185
000360 4f de b6 bc fb 54 25 3c e0 6c 8a ba fd b0 6c bc
       -0.022322802 0.010091062 -0.0010561012 -0.014446494
000370 de a9 d0 3b bc e1 bc bb 8b c2 2b bc e4 d3 30 3c
       0.006367906 -0.0057642143 -0.010483394 0.010792706
000380 a9 e1 e4 bb 44 fb a6 3c 24 e9 70 3c 9f db 20 bc
       -0.0069849086 0.020383485 0.014704023 -0.009817987
000390 41 73 c3 3c 54 46 55 bc 62 78 5d be 5a 82 1d bb
       0.023858668 -0.013017256 -0.21627954 -0.0024033994
0003a0 d2 cc cd bc de 11 ba 3c 14 35 f0 bc 77 91 08 3e
       -0.02512208 0.022713598 -0.029322185 0.1333674
0003b0 34 3f f9 bd 27 63 2a bb 39 d6 a0 3c 68 37 15 3c
       -0.12170258 -0.002599904 0.0196334 0.009107448
0003c0 ee fb 48 3b fb 88 84 3c 2b 72 cc be db ab 89 bc
       0.003066774 0.016178599 -0.39930853 -0.01680558
0003d0 37 05 a1 3b 35 47 8b 3c c0 cf 4f 3c 53 b8 49 3c
       0.0049139517 0.017001728 0.012683809 0.012312013
0003e0 65 3a ae bc 33 2d 71 bb 0f 3d d4 3d e6 fa 3f bb
       -0.021268079 -0.0036800622 0.103632085 -0.0029293834
0003f0 58 b9 91 3c fa d0 91 3c ab 31 5f bc 66 54 f5 bb
       0.017788574 0.017799843 -0.013622682 -0.0074868677
