checkpoint_actor0.pth (torch_old, 524625 bytes, 6 tensors)

fc1.weight f4 [400, 24]
00000000: b3a3 b93d a091 c83d 2ce5 b7bc 2dfe babc
00000010: 91c2 813d 5dcd 77bd eb3c b4bb 1b50 b4bc
00000020: d128 163d 0038 c73d 737f b73c 4239 62bd
00000030: e892 2b3b a061 1abd 6ca4 4ebd a048 dfbd
00000040: b7da 823d ce15 823d 5192 29bd 8400 ffbc
00000050: 33ff f53c 856d 39bd 0711 02bd d571 08bd
00000060: 61ef f0bd 0ec7 c2be a990 263e e962 0abe
00000070: 37f8 573e 6da0 5abe 62c6 123e dd7c 19be
00000080: 8a19 2abe 96c1 cfbe 230b dc3d 4247 193e
00000090: 1e70 4d3e 5e4d 99be 7cb0 fd3d 07ed 1a3e
000000a0: db34 25be ba16 c5be 89fd 9f3d 384c 3f3e
000000b0: 6123 853e c7e5 c7be d47c d43d 9c87 4a3e
000000c0: 4aad c0bd 3dd3 8dbe 09b8 b8bd 62ad 193e
000000d0: f031 073e df2d dc3d 7e65 fabc 6c44 123e
000000e0: 9905 c7bc d977 6ebe 8b73 b5bb 833d 5f3e
000000f0: 85ca 183e b42f 70bc 7aa1 68bd 8d0c 133e
00000100: f809 d1bd 7463 e3bd c7cf 743b a6b2 f03d
00000110: fd8d 6f3e 7b00 2a3d 31cf 2fbd 66a8 023e
00000120: c624 27be 8fc0 b23d 3167 dcbd 0e56 07be
00000130: 7190 fcbd 57b1 033e f892 96bd 908f 0dbe
00000140: 4a68 cdbd 6dc5 8e3d 787f a8bd 5087 03be
00000150: d280 87be 3504 323e 19b2 b4bc 1796 1abe
00000160: 7312 423d 3582 213e 9897 643e 3cf2 55bd
00000170: a323 14be ac12 8c3d 5581 403e f58a e0bd
00000180: bd65 ac3e 02bb bfba 42a1 8c3d 04b9 5fbe
00000190: 1461 0dbe b9de 8bbe d41b 473d ca46 74be
000001a0: efbc 563e e635 c5bd 20eb 73bd 1724 d8bd
000001b0: d948 27be 834b 89be bc48 c3bd c615 ecbd
000001c0: 0366 313e 5bd7 c4bd 79f4 23bd 8ab0 11bd
000001d0: 6bcb 07be 5fd4 a1be 598e afbd ef0d dfba
000001e0: c14f afbd 05b0 b5bd e246 8ebd e451 343e
000001f0: b177 f1bc 6f84 873c 0e25 ebbd a79e e43d
00000200: 3496 64bd 57b6 8b3c 8ffc 31bd 3bc6 693e
00000210: 7c85 7fbd 6cbd bc3c 228a 5d3c 4758 6a3e
00000220: dd9d babd 7a37 06bc 2be4 f1bd 8f32 8b3e
00000230: 5ea0 75bd 3e71 c63a edac bbbd 809e aa3e
00000240: 8c0b 18bc 9293 0ebe aa4b bb3d 3fbd 9e3d
00000250: d82f ad3e 67a6 163e d859 be3d ac34 063d
00000260: 8b0f 49bd ba72 e8bd dd19 913d a221 183e
00000270: 1e6c b13e 9648 003d 1ec4 5d3d 832d 033e
00000280: fba8 04bd 6a7c e1bd b0a7 9fbd bb98 403d
00000290: 5df1 b33e efce 803c bec5 03bd 34e7 c03d
000002a0: f9ce dbbd ee86 7abe cbb6 9b3d fe44 98bd
000002b0: 0b9f 303e 452d 523d 4e7d a83d 9e90 fbbd
000002c0: 2b33 d9bd b3b7 34be 4331 553e ba12 83bd
000002d0: 12a9 233e 161b 423b 7d84 453e a902 ddbd
000002e0: 5480 f0bd 44bb 1bbe 990e e93d 6da5 2bbd
000002f0: 4d60 5f3e 1713 37bd 3a16 3e3d 1aed 18bd
00000300: ce06 a43d 65a0 353e af5f aabc 8944 143d
00000310: 3f8d c53d 6ba4 273d 70e2 fbb9 80cf 163d
00000320: 5a0c 463e bdfd 283e 4e44 f73c b7a3 083c
00000330: 037d 9e3c 063d 44bc 96ee e6bc a550 4a3d
00000340: d898 bc3d 9ad4 de3d e03a 2bbb 945e 0abe
00000350: 6996 003d cd75 59bd 1777 87ba f1bb a2bd
00000360: 4985 743d 091f 7dbd e215 2dba e30e 8e3d
00000370: 60cf 1e3e 746f e3bd 7934 f3bc 0f6c b33d
00000380: 110e 233d 67b1 c5bc 18f4 01be 6c02 053e
00000390: 77b8 af3d 635a c3bd e659 05be 70de aa3d
000003a0: c337 ac3d 5a88 403d de9d c5bc dad6 bb3d
000003b0: ada9 4a3d 000e 69bd e024 223b eae1 fb3d
000003c0: f315 71bd 5076 82be 193d a23d 0f87 c53d
000003d0: fb87 8b3e 9212 5b3e 8f2a 033e ba5e 023e
000003e0: ed5e 65bd 8e81 5abe 318c 2b3e 2e0f bc3d
000003f0: 70ee 8b3e 455e 0c3e a9a0 363e 6c83 983d
0.09064426 0.09793401 -0.022448145 -0.022826279 0.06335939 -0.060498584 -0.005500426 -0.022010854
0.03666002 0.09727478 0.02239964 -0.055230387 0.0026180092 -0.03769076 -0.050449774 -0.10902524
0.06389373 0.06351815 -0.041399304 -0.031128176 0.030028915 -0.04527046 -0.03175452 -0.033311684
-0.11764408 -0.38042492 0.16266121 -0.13514294 0.2109078 -0.2135026 0.1433349 -0.14989038
-0.16611305 -0.40577382 0.10744312 0.14968589 0.200623 -0.2994184 0.12387177 0.15129481
-0.16133444 -0.38493901 0.0781203 0.18681419 0.26003554 -0.39042494 0.103753716 0.19778293
-0.09408052 -0.27700225 -0.09019477 0.15007547 0.13202643 0.10750937 -0.030565973 0.14283913
-0.024294661 -0.23287906 -0.0055374554 0.21800809 0.14921005 -0.014659811 -0.05679462 0.14360256
-0.102069795 -0.111029536 0.003735529 0.117528245 0.23394008 0.041504364 -0.042922202 0.12759551
-0.16322622 0.08728134 -0.1076187 -0.13216421 -0.123322375 0.12860619 -0.07352251 -0.13824296
-0.10029657 0.0697125 -0.08227438 -0.12844586 -0.2646547 0.17384417 -0.02205758 -0.15096317
0.047380876 0.15772326 0.22323453 -0.052232966 -0.1446672 0.06839499 0.18799336 -0.10964004
0.3367137 -0.0014627876 0.06866695 -0.21847922 -0.13806564 -0.2731836 0.048610523 -0.23855129
0.2097051 -0.09629421 -0.059550405 -0.105537586 -0.16336383 -0.26815423 -0.09535357 -0.115275905
0.1732407 -0.09611388 -0.04002807 -0.03556875 -0.13261192 -0.3160734 -0.085720725 -0.0017017702
-0.08560134 -0.08871464 -0.069471136 0.17609364 -0.029476019 0.016542641 -0.11481677 0.11163073
-0.055807307 0.01705472 -0.04345375 0.22829525 -0.06238316 0.023039542 0.013521703 0.22885238
-0.09112141 -0.008191938 -0.11811098 0.2718701 -0.05996739 0.001513995 -0.09163842 0.3332405
-0.009280097 -0.13923481 0.09145291 0.077509396 0.33825564 0.14711915 0.0929448 0.032765076
-0.04908709 -0.11350007 0.07085011 0.1485658 0.346528 0.031319223 0.05414211 0.1281033
-0.032387715 -0.11010058 -0.07795656 0.047020655 0.35145083 0.015723674 -0.032171004 0.094190985
-0.10732836 -0.24465534 0.07603224 -0.07435034 0.1724817 0.051312704 0.08227025 -0.12283443
-0.10605463 -0.176482 0.20819573 -0.06400056 0.15982464 0.0029618195 0.19288822 -0.10791523
-0.11743227 -0.15208155 0.113797374 -0.04190581 0.2181408 -0.04469594 0.046407916 -0.037335493
0.080091104 0.17736967 -0.020797579 0.036198173 0.09646081 0.040928286 -0.0004804316 0.03681898
0.19340649 0.16503043 0.030183937 0.008339814 0.01934672 -0.01197744 -0.028189939 0.049393315
0.0920884 0.10880394 -0.0026127622 -0.13512641 0.031393442 -0.05309086 -0.0010335174 -0.07946003
0.059697423 -0.061797176 -0.0006602687 0.06936433 0.15508795 -0.11105242 -0.029688107 0.08760845
0.039808337 -0.024132444 -0.1269077 0.12989205 0.08580106 -0.09538724 -0.13022575 0.08343208
0.08409073 0.047005035 -0.024123129 0.09171839 0.04947822 -0.056898117 0.0024741217 0.12298949
-0.058858823 -0.2548089 0.0792181 0.09644901 0.27252182 0.21393803 0.12809204 0.12731448
-0.05599873 -0.21338484 0.16752698 0.09182583 0.2733035 0.13707836 0.17834724 0.07446942

fc1.bias f4 [400]
00000000: d728 4bbe 74ee 3abc b72c 4b3d e1ee 9abd
00000010: a81d babd 3890 72bd 00db 35bd 0ffa 463e
00000020: 0251 9bbd fd20 ebbd bf52 923e 732c 48bd
00000030: a8b1 5f3c 82f0 f63d 27bf a63c 95ed 7fbd
00000040: 4f7c 363d 6b8a 553d 375b 183e df0d 6bbe
00000050: 7588 063d a182 89be 33e4 233d e4a3 b8bd
00000060: c8d2 71bd b5a0 1e3e a918 d13d 17c4 c23d
00000070: 8773 60be 030a d3bc 49c4 2c3e e6bb e43d
00000080: 8cb2 e7bd c605 593e 2003 51be 64c5 ed3b
00000090: ac9a 74be 3bba 55bd 5928 61bd e34a 2fbe
000000a0: 4f80 efbd 7fec 723e f6ee 7bbe d098 91bd
000000b0: 8297 813d dde2 ed3d c49d 443e 8139 9ebe
000000c0: 0baf 2e3d d38e c93d 5b2a 913b 5ea1 30be
000000d0: d95e 0b3b 3c8c 143e a7d7 d33c ccb2 64be
000000e0: a78a 1dbe 3085 21bd 145e dbbc a130 6cbd
000000f0: c399 71be 84b8 c4bd ec1b 02be 4b17 afbe
00000100: 7747 20be 95d8 79be d672 91bd 4998 2cbe
00000110: 3f5e 58be 59a2 76be 6c6e 36bd 6378 283e
00000120: af0e 3cba ad06 003e 4b9a a73d f2e9 583e
00000130: 0139 6dbd e7a5 77bd 9d8f 963d 678c 6dbd
00000140: d2d1 84bd a157 aabc b86f 2e3e 05f9 773c
00000150: 6fe8 4cbe 2925 06be 8f40 17be e3b7 65bc
00000160: b1a4 5fbe a7bc 30be b212 3fbc c613 313e
00000170: a10a 9cbc 9a5b 163e fb31 2ebd 5c91 91bd
00000180: e9c9 0b3e 2c17 b2bd d8a3 853a 3f11 03be
00000190: dd01 15be bf4a 003e 3cec 32bd 2f04 38be
000001a0: beb3 d23d c414 43be bd7b 9fbd f393 8fbe
000001b0: ed71 2c3e 1e83 273e ce85 693e b724 39be
000001c0: edb9 1abd 45fd 263d 73ed 723d 0c30 1cbe
000001d0: 1f0b 90bd 0cdd 11be 35f1 e13c ef27 923d
000001e0: 7c28 22be 1fd4 1cbe 5cca fd3d 6782 613e
000001f0: 1988 243e f6cc 68be 8514 2a3c 5cc1 b1ba
00000200: 72d3 a63e 6d14 3ebe e41e f13d a2b6 8cbd
00000210: 4233 4c3d 4747 b5bc 5353 063e 0c95 24be
00000220: 4467 2b3c 1d19 dbbd b7ea 953d e61a a3bd
00000230: 6abf d0bc d6fb bcbd f1eb a8bd a5cc a03c
00000240: 824e cebc 7ed8 7bbe 5fe5 f53c 283c 22bd
00000250: 7f28 41be 1403 dabd e6e6 8cbc ce9e 2e3d
00000260: 173c 953e 2fc5 20be 41bb 59bd 43a4 0bbc
00000270: adb4 83bd 9c35 2dbe 67f7 6a3d 2a07 81be
00000280: ce09 2d3d f8f1 253d 341f 0f3e dd02 47be
00000290: 265b 42be 27d0 013e a867 69bd 0420 55be
000002a0: 1271 5abd eed8 e63d d58a 44be 7971 4fbd
000002b0: d64d 73be e17b e7bd a1f7 bdbd afc7 ecbd
000002c0: f7fa 0fbe c78b e93c 5ee3 143c 304d 473e
000002d0: 02c7 d93d 18ba 41bd d247 5ebd b61f 5e3d
000002e0: 04cc ab3c f65b 7f3d c317 713d 2b02 203e
000002f0: fb69 b13c d7c8 63be 8eed 833d 91b6 c3bd
00000300: e603 6dbd 8676 603e 53d7 80bd fb10 00be
00000310: d319 8e3d ffdd 3a3e 65ff 9d3c 9d81 b1bd
00000320: 3a30 2abe d93b 28be 6c28 53be c943 ccbd
00000330: 9f53 22be 3af3 fc3d 80ba 1cbe cca0 cc3b
00000340: 6e14 0dbe bf45 62be 7230 983c 39a5 dd3d
00000350: 2176 ca3c 0c81 873d dcc3 0dbe 4c8d b3bc
00000360: dcf7 283d fd9a 593e 5d95 7cbe 59cb 773e
00000370: d22a d1bc 7ccb 7dbe 3d65 733e 27e1 e73c
00000380: 9a7e 54be 26d3 d13d 5cdd afbd 061f 21be
00000390: 0ac9 693d 7faf ce3d 3bab 433e 1f04 f7bb
000003a0: d0d8 0dbe 7344 21be 8a79 0bbd 43d6 563e
000003b0: 6bf7 d43c 0174 363e 0398 2cbe 1d7a f2bc
000003c0: a8a8 e6bd 51d6 c5bd a9e7 a43e d9b1 7abd
000003d0: 5e73 c13d 3bb5 843e f70d 543e f587 1c3e
000003e0: 3475 bebd 9716 c9bc ffdd e53c 34d3 803e
000003f0: cde9 bb3d 20da 2a3e b81d 2bbd 4c3a f23c
-0.19839798 -0.011409391 0.04960319 -0.07565094 -0.09087688 -0.05921957 -0.044398308 0.19431327
-0.075838104 -0.114809014 0.28578755 -0.048870515 0.013653196 0.12057592 0.02035482 -0.062482435
0.044552144 0.05213396 0.14878546 -0.2295451 0.03284498 -0.26857474 0.04001255 -0.09015635
-0.059038907 0.15490992 0.10209782 0.095100574 -0.2191907 -0.02576161 0.16871752 0.11168651
-0.11313352 0.21193609 -0.20411348 0.007256197 -0.23887128 -0.052179556 -0.05497012 -0.17118411
-0.11694395 0.23723029 -0.24602875 -0.07109225 0.06327726 0.11615536 0.19200808 -0.30903247
0.042647403 0.09841695 0.004430098 -0.17249057 0.002126625 0.1450662 0.025859667 -0.2233383
-0.15384923 -0.039433658 -0.026778258 -0.057663564 -0.23593812 -0.09605506 -0.12705964 -0.3419746
-0.15652262 -0.24399026 -0.07101981 -0.16854967 -0.21129702 -0.24085368 -0.0445389 0.16452174
-0.0007173819 0.12502547 0.08183726 0.21182993 -0.05791569 -0.06046095 0.07351611 -0.057995226
-0.064853325 -0.020793738 0.17034805 0.0151350545 -0.20010541 -0.13100113 -0.14770721 -0.014020893
-0.21840169 -0.17259465 -0.011662172 0.17292699 -0.019048037 0.1468338 -0.042528134 -0.07107803
0.13651241 -0.08695826 0.0010195924 -0.12799548 -0.14551492 0.12528513 -0.043682322 -0.17970346
0.10288189 -0.1905089 -0.07787273 -0.28042564 0.16840334 0.16358611 0.22804949 -0.18080412
-0.03777497 0.04076888 0.05930848 -0.15252703 -0.07033371 -0.14244479 0.027580837 0.07136523
-0.15835756 -0.15315293 0.123921126 0.22022401 0.16067542 -0.22734436 0.010380869 -0.0013561654
0.32583195 -0.1856248 0.1177347 -0.06870772 0.04985357 -0.022128714 0.13117723 -0.16072482
0.010461632 -0.10698149 0.07320159 -0.07964115 -0.025481898 -0.092277214 -0.08248127 0.019628832
-0.02518392 -0.24594304 0.0300166 -0.03960815 -0.18863104 -0.10645118 -0.017199945 0.042631917
0.29147407 -0.1570022 -0.053157095 -0.00852305 -0.064309455 -0.16914982 0.057364848 -0.25200778
0.04224568 0.040513963 0.13976747 -0.19434686 -0.18980083 0.1267706 -0.05698362 -0.20812994
-0.05333049 0.11271845 -0.19193585 -0.050645325 -0.23760161 -0.11302925 -0.09275747 -0.11561524
-0.14060579 0.028509034 0.009087412 0.19463038 0.10633661 -0.047296613 -0.054267712 0.05422946
0.020971306 0.06234356 0.05886055 0.15625827 0.02165698 -0.22244583 0.06441794 -0.09556306
-0.057865046 0.21920213 -0.0629107 -0.12506478 0.06938519 0.18248747 0.01928682 -0.086673
-0.1661996 -0.1642908 -0.20620888 -0.099738665 -0.15852211 0.12351079 -0.15305519 0.0062447544
-0.13777325 -0.22096919 0.018577788 0.10822529 0.024714531 0.066164106 -0.13844246 -0.021917962
0.041252002 0.2125053 -0.24666353 0.24198665 -0.025533114 -0.24784654 0.23769088 0.028305603
-0.2075142 0.102453515 -0.08587143 -0.15734491 0.05707649 0.10092067 0.19108288 -0.007538333
-0.13852239 -0.15748768 -0.034051456 0.20980172 0.025996884 0.1781769 -0.16854863 -0.029599244
-0.112626374 -0.09660018 0.32207993 -0.061204765 0.09445833 0.25919518 0.20708452 0.15286238
-0.092996985 -0.024546904 0.028059958 0.25161135 0.09175453 0.1668477 -0.04177639 0.029568814

fc2.weight f4 [300, 400]
00000000: 4173 3ebc a8c0 69bd 1ebd af3b d8c8 0f3d
00000010: 9181 6b3c 6e31 9fbd 41aa 39bc c39e 973c
00000020: 54cc 9b3c faa3 7cbd 78a0 6dbb e6ff a6bc
00000030: e1a9 08bd ecec ebbc 3823 80bd 9476 1bbd
00000040: 5491 cb3c d931 5ebd 0293 4abd be12 02bd
00000050: e3bb fcbc f18d e3bc 21a9 5abc 8a76 00bd
00000060: 2050 15bd f8ec bb3a 98bc cbbc 4515 65bc
00000070: e394 eebb 7b03 c93c 7472 2ebc 972c 8dbd
00000080: 04db ddbc 35a1 833c 0461 f43c 6b6f 13bd
00000090: e897 9fbd 25dc 8d3c 2065 1f3d d90b 98bc
000000a0: b61f dabc 97ec 48bd 001c 39bd 0c00 b23c
000000b0: 3e68 93bc 92ac fdba fe98 c63c 48a4 9b3c
000000c0: 7c63 ac3c 8430 593c 0bfe 1f3d b0d9 493a
000000d0: 1091 f73c 088b 1ebd 491e 103d e45f f03c
000000e0: 38e8 013d ef4b 023d acc0 79bc f12a 1fbd
000000f0: fd37 23bc 361e 19bb 0d32 883b b90f ee3c
00000100: 0038 6f3c 977c 53bd 81d5 44bd c923 303d
00000110: ebca 27bd 704b 883c 079f 29bd af67 5d3c
00000120: 3a99 dd3c 2d94 8ebd 086d 8fbd 1171 48bd
00000130: 68af d2bc b4a6 67bd 117b 49bd 27c6 d43b
00000140: e50c 4abd 5d25 e2bc 22ce 79bc ec40 603b
00000150: 73ef dd3c 3791 32bd 9047 f23b 9623 043c
00000160: 7370 793b 4f2d babd b831 8bbd f3bf 5dbc
00000170: 2274 f4bc 22d6 1fbd 968f c4bb 35a5 773c
00000180: 9829 fc3c a0b6 55bd b879 43ba 7ea4 20bd
00000190: f941 3ebd 725a c4bd 541f 14bd 7926 e13c
000001a0: da58 093d 13a4 11bd e6fa 5bbd a592 7cbd
000001b0: 5f34 60bd 4ac8 c7bd 839e 96bc 99f0 95bd
000001c0: f316 2f3c a714 34bd 7204 99ba 9787 26bd
000001d0: 13ab 2bbb 0c23 8abd ca81 4bbd e567 60bd
000001e0: 796c c33b fa78 9dbb 90fc b6bd a36a 13bd
000001f0: 442b 58bd f5bf 85bd 0a92 9e3c b5df 59bd
00000200: 8658 aebd 876c 073d 262b 2b3d c591 a339
00000210: e275 293b c5e6 263c 30b1 053c 9c6c 4e3c
00000220: 8402 4fbd b9c5 18bb 4743 563c 4c83 8c3c
00000230: 5c7e 52bd 1ba7 a3bd 7ff6 85bd 5ba7 e1bc
00000240: 32fb f13b 7fa4 3cbd 8868 25bd dd47 4e3c
00000250: 4174 1f3d c0d9 e93c ecce 34bd 3221 6b3c
00000260: b848 45bc 94d5 88bc 7f48 5fbd 64f9 2dbd
00000270: a5a1 cfbc 895b 12bd 800d 83bd 08a1 82bd
00000280: 1fbb 973a 7bc3 e6bc 3125 563c f508 8cbd
00000290: 7921 df3b c361 72bd 7523 37bd d3d8 abbc
000002a0: e532 933c 8038 67bc 4fb8 9b39 f4cb 493b
000002b0: 057a 67bc c051 85bd 5733 68bd a1b0 513c
000002c0: 81e4 96bc fe92 153c 6d5f 7ebd cfd5 81bd
000002d0: 57e4 babd 32a9 323c 9ed3 61bb e163 b3bd
000002e0: fc38 17bb c1d0 c3bb f3a4 3ebd 49a4 86bb
000002f0: 62ea 0b3d c517 a2bd c089 09bd 78e6 b9bd
00000300: 9d13 9bbd 7514 60bd 9de2 17bd 545b 35bd
00000310: bb47 02bd 3ba2 80bd d1a4 e6bc e729 e43c
00000320: a995 253b 636c 3dbd 1173 fbbc 3c8a 303d
00000330: c093 66bd d7d5 75bc 0c2c 60bc 2ec3 24bd
00000340: 8787 8a3b a6d8 b2bc ec8e dc3c 54cc 753b
00000350: f766 66bb ace3 a7bd a58b 313c 0469 56bc
00000360: 6384 b03c 9a7b 0b3b e3e7 afbd 66e9 033d
00000370: 3fa6 99bd 31c0 29bd b0ee 54bd ccc2 a9bd
00000380: a90a b2bc 06be 723a de87 4bbd 7711 0b3b
00000390: a59d 47bd 3363 35bd 7b67 9dbb 7456 cabc
000003a0: 5589 1fbd c150 e7bc 290f b3bc c044 bfbc
000003b0: 918e 67bd 36f1 98bd 4729 883c 889c 8dbb
000003c0: 7773 82bc 9dad 0b3d d2e4 55bd df9f 823c
000003d0: 0d2e 293d eedc 77bd 73e2 08bd 480d 52bd
000003e0: 8ab5 bfbc f493 4dbc d39f c7bd e877 15bd
000003f0: 6680 4dbd 7549 e23c 89bb 26bb 8830 d1bc
-0.011624158 -0.057068497 0.0053631207 0.03510365 0.014374153 -0.077731 -0.011332096 0.01850832
0.01901833 -0.061679818 -0.0036258977 -0.020385694 -0.033365134 -0.028799497 -0.062567174 -0.03795488
0.024849571 -0.054246757 -0.049456604 -0.031756155 -0.03085131 -0.027777644 -0.013345988 -0.031363048
-0.036453366 0.001433759 -0.024870202 -0.013982122 -0.0072809323 0.024537792 -0.010647405 -0.068932705
-0.027081974 0.01606808 0.029831417 -0.03599493 -0.07792646 0.017316887 0.0389148 -0.018560337
-0.02662645 -0.049053755 -0.04519272 0.021728538 -0.017994042 -0.0019353798 0.024242874 0.018999234
0.021043532 0.013256196 0.039060634 0.00076999795 0.030220538 -0.03870681 0.035185132 0.0293426
0.0317156 0.031810697 -0.01524369 -0.03885931 -0.009962079 -0.0023363954 0.004156357 0.029060232
0.014600754 -0.05163249 -0.048055176 0.043002877 -0.040965002 0.016637534 -0.041411426 0.01351349
0.027050603 -0.06961856 -0.07003218 -0.048935954 -0.025718406 -0.056555465 -0.04918963 0.006493348
-0.049328703 -0.027605707 -0.0152469 0.0034218384 0.027091717 -0.04359552 0.007393785 0.008065125
0.003806141 -0.09090673 -0.067965925 -0.013534534 -0.029840533 -0.039022572 -0.005998562 0.015115072
0.030781552 -0.052176118 -0.0007456797 -0.039219372 -0.046449635 -0.095875636 -0.03616269 0.027484166
0.033532 -0.035556864 -0.053706072 -0.06166329 -0.054737445 -0.09754999 -0.018386131 -0.07321281
0.010686624 -0.043965008 -0.0011674298 -0.040656652 -0.0026194497 -0.06744966 -0.049684323 -0.05478658
0.0059638587 -0.0048056813 -0.08934891 -0.03599037 -0.052775636 -0.065307535 0.019356746 -0.05319186
-0.08512978 0.033062484 0.041789196 0.0003119839 0.0025857617 0.010186856 0.008159921 0.012599137
-0.05053951 -0.0023311211 0.013077564 0.017152451 -0.051390037 -0.07990857 -0.06541156 -0.027545622
0.007384681 -0.046055313 -0.040382892 0.012590376 0.038929228 0.028546214 -0.04414265 0.014351176
-0.012041263 -0.016703404 -0.054512497 -0.042474166 -0.025345633 -0.035731826 -0.06399059 -0.063783705
0.0011576152 -0.028169384 0.013070391 -0.06837646 0.00680941 -0.059175264 -0.04471155 -0.020977413
0.017968604 -0.014112592 0.00029701224 0.0030791732 -0.014128213 -0.06509733 -0.056689586 0.012798459
-0.018419506 0.009129284 -0.062102724 -0.06339609 -0.091255836 0.010904597 -0.003445841 -0.08759285
-0.0023074737 -0.005975813 -0.046544027 -0.00410894 0.03415907 -0.0791469 -0.033578634 -0.090771616
-0.075721 -0.05470701 -0.03708135 -0.04427655 -0.03180669 -0.06280943 -0.028154762 0.027852012
0.0025266206 -0.046245944 -0.030694516 0.04310058 -0.05629325 -0.015004597 -0.013682377 -0.0402252
0.004227582 -0.021831822 0.02692362 0.0037505822 -0.0035156587 -0.08197722 0.0108365165 -0.013086561
0.021547502 0.002128339 -0.08589151 0.032205008 -0.07502412 -0.041443054 -0.051985443 -0.08289108
-0.021733599 0.0009259883 -0.04969012 0.0021220127 -0.048734326 -0.044284057 -0.0048035956 -0.024699427
-0.03894933 -0.028236749 -0.021857815 -0.023348212 -0.056532446 -0.07467882 0.016621245 -0.0043216385
-0.015924199 0.034101117 -0.052220173 0.015945373 0.041303683 -0.06051343 -0.033419084 -0.051282197
-0.023401994 -0.012547482 -0.09747281 -0.036491305 -0.05017128 0.027622918 -0.002544137 -0.025535837

fc2.bias f4 [300]
00000000: 53f8 c3bd 2a02 183c d64d f1bc 087a 4b3d
00000010: ece1 67bd f32f 9dbd 4499 443d e7ca 88bd
00000020: 58ed 943d cdf2 5ebd 138d 1abd 3fd1 94bd
00000030: dc16 33bd f374 0ebd f878 ea3d 5cc8 133c
00000040: 6bb2 aabd 2c21 d63d fca5 5f3d 6dc6 86bd
00000050: 4233 0b3d ba82 79bd 0562 6bbd d57f 4bbd
00000060: 8707 99bd f187 a0bd 2088 aebd 2d60 2abd
00000070: a191 1ebc 12fd 44bd 7276 b9bc 32a3 a3bd
00000080: e11e ecbc b1ce 50bd 3735 60bd 4b4a 8ebd
00000090: 465e bfbb 1d85 4fbd bac4 53bd 488e 84bd
000000a0: 0e81 26bd 859c 91bd fc36 39bd 0e5f c83d
000000b0: 2a61 87bd 93f5 98bd 3f0e 543d d72c 453d
000000c0: 731e 58bd b42f b43d 06e3 bd3d 391a 4abd
000000d0: 90fd 93bd fcf1 9cbd 3dfe c6bc 117f b6bd
000000e0: 1b94 2b3c 340f b3bd b959 a0bc 55a4 67bd
000000f0: ed17 943c d999 f53d 894d cc3d 8ca1 eebc
00000100: 8462 5a3c a300 6e3d 2f1f 3f3e fe37 86bd
00000110: ecb7 433d a077 153d b9d7 463c 27e5 cb3d
00000120: cc0d 54bd 9166 0fbd 7237 94bc b4e1 d2bc
00000130: 4fd7 8c3d a099 0b3e 1d7a 9fbd be9b 8e3c
00000140: 2fcb 6fbd c165 313b a369 4c3d 9411 94bd
00000150: 884f e4bc a085 74bc 6dc0 7dbc 6aff 913b
00000160: e22e b4bd efd5 293e f6bb 413d 5342 5fbd
00000170: af51 8ebd dc9b f93c 6541 e13d eea2 3fbd
00000180: a862 c2bd eba6 1d3d cd9d c2bc 2433 a13c
00000190: c9a3 793d 9865 6f3d 216a 59bd 9def b3bc
000001a0: a7a8 efbc 721b c1bd 0c7c 87bc b161 a3bd
000001b0: c1c4 e53d 594e 5b3c 144b c5bc 3598 5fbd
000001c0: e1b3 cdbb de38 8f3d 2653 1f3e 3daf df3d
000001d0: ea67 be3c c40b 95bd 6ccf 24bd 7e45 05bd
000001e0: b7b7 45bc 5590 32bd 246d c1bd ef2c b5bc
000001f0: 01ad 3dbd 5e3e aebd 9211 68bd dc01 b6bc
00000200: 3cc8 9dbd 1a9b 91bd cecb 36bd 6144 a53c
00000210: c074 6dbb 62e7 d6bd 766d 56bd 6e0a dabd
00000220: 1e18 cabd 044d 0fbd feda 44bd 1ff0 7bbd
00000230: b384 1ebd 7c8f 2dbd 49bf 2d3e 7470 e53b
00000240: 8c2c 00bd 4290 a4bb f6c5 38bd 66a6 e23d
00000250: 817e dc3d 0a41 4ebb 813f 52bd 9f67 c3bd
00000260: df19 723d e20e 3abd 245b 3bbd 0990 3e3e
00000270: ec2b 5dbd 0c1b a0bd a6eb bbbc fc3c 2c3e
00000280: 4c54 6abc a445 a0bd d2d3 8fbc 0ec6 55bd
00000290: 7d02 25bd 1c68 ffbc 847b 5cbd b864 583c
000002a0: cb29 25bd 5625 efbd f7ed 93bc 0ce0 77bd
000002b0: b70b bbbb 067d 26bd d960 18bd e7de efbc
000002c0: 53bd 8d3b c7ca e93a 3c0d 77bd f726 ab3d
000002d0: 0a18 adbd 77e2 0dbd 9e3e 883d 699b 97bd
000002e0: 7fce 10bc c107 ad3b e47c 35bd 0271 43bd
000002f0: 927d b5bd 1ce7 743d 3f85 c0bc 92f7 453e
00000300: 843a 973b 1eca efbd 202c f83b fe01 0abd
00000310: c431 15bd a68b 21bd 26b7 0ebd 5c5e 59bd
00000320: 447c 70bc b030 4cbd e155 bebc d7a0 97bd
00000330: 7fd8 ecbd e493 a83d 889a 17bd e4c4 27bd
00000340: fa4f a9bd 2684 82bd e51a a03d fb0e e93d
00000350: 6ebe 8cbd 4307 f5bd 2757 1dbd 9c33 32bd
00000360: c629 8bbd 4910 073b d554 b83d 03bf 0e3d
00000370: 3e9a b1bc f704 28bd 346e 02bd 7367 1abd
00000380: 1a53 203d 280f b5bc 2f58 a0bd 9658 643d
00000390: 8bc3 e6bd 530a 81bd 0df1 94bd 5390 a1bb
000003a0: 906b d13d 3207 94bd cfd1 8ebd d1c4 7ebd
000003b0: 1173 103e d1cc 65bd faa0 12bd b1c1 a53d
000003c0: 85b0 afbd 2756 0d3d 0d35 643d ecbb 6ebd
000003d0: d233 9dbd 381c 32bd 1ce1 72bd e52d a9bd
000003e0: 03b9 1fbd 55c3 69bd c462 19bd 1a8c 623c
000003f0: 277e 113e 516e d73d f295 a6bc 390c a73c
-0.095688485 0.00927786 -0.02945606 0.049676925 -0.05661194 -0.07675161 0.047997728 -0.066793256
0.07271832 -0.05443077 -0.037732195 -0.07266473 -0.043722972 -0.0347795 0.11448854 0.009019937
-0.08334812 0.10455546 0.054601654 -0.065808155 0.03398443 -0.060915686 -0.057466526 -0.049682457
-0.07472139 -0.07838429 -0.085220575 -0.041595627 -0.009678275 -0.04809291 -0.022639487 -0.079901114
-0.028823318 -0.050978366 -0.05473825 -0.06947764 -0.0058400957 -0.050664056 -0.051701285 -0.064724505
-0.04065042 -0.07109932 -0.045218453 0.09783755 -0.066103294 -0.074687146 0.0517714 0.048138466
-0.052763414 0.08798161 0.09271817 -0.049341414 -0.072260976 -0.07663342 -0.024291152 -0.08910955
0.010472323 -0.08743134 -0.019574033 -0.056553204 0.018077815 0.11992235 0.09975726 -0.029129766
0.013329152 0.058106076 0.1866424 -0.065536484 0.047782823 0.036491036 0.012136393 0.09955817
-0.05177097 -0.035009924 -0.018092845 -0.02574239 0.06877004 0.13632822 -0.07786963 0.017408248
-0.05854338 0.0027068707 0.04990543 -0.07229915 -0.027869955 -0.014924437 -0.015487772 0.0044554966
-0.08798005 0.16585515 0.047298394 -0.05450661 -0.06949174 0.030469827 0.10998801 -0.04678624
-0.094914734 0.038489264 -0.023756886 0.019677706 0.060947213 0.058446497 -0.053079728 -0.021964842
-0.029255224 -0.09429063 -0.016538642 -0.079776175 0.112191685 0.013385379 -0.024083652 -0.054588515
-0.0062775468 0.069932684 0.15559062 0.10922096 0.02324291 -0.07277635 -0.040236875 -0.032536976
-0.012067727 -0.043594677 -0.09444645 -0.022116153 -0.046307568 -0.08507989 -0.05665738 -0.022217683
-0.07704207 -0.071096614 -0.044627957 0.020174207 -0.0036232919 -0.104933515 -0.052350484 -0.106465206
-0.09867881 -0.034985557 -0.04806041 -0.061508294 -0.03870077 -0.042373165 0.16967501 0.007001931
-0.031292483 -0.0050220797 -0.045110665 0.11066894 0.10766316 -0.0031471872 -0.051330093 -0.095412485
0.059106704 -0.04542435 -0.045741215 0.18609633 -0.053996965 -0.07817659 -0.022939514 0.16820139
-0.0143023245 -0.07825783 -0.017557058 -0.052190833 -0.040285576 -0.031177573 -0.05382873 0.013207607
-0.04032306 -0.11677043 -0.018057806 -0.060516402 -0.0057081836 -0.040646575 -0.037201736 -0.029281093
0.0043255477 0.0017836922 -0.060315356 0.08357041 -0.08451851 -0.0346398 0.06652568 -0.07402689
-0.008838295 0.0052804654 -0.044308558 -0.047715195 -0.08861841 0.059790716 -0.023501037 0.19332722
0.00461513 -0.11708473 0.0075736195 -0.033693306 -0.036424413 -0.03943982 -0.034842633 -0.053068504
-0.014678065 -0.04985112 -0.02323431 -0.07403725 -0.11564731 0.08231333 -0.037012607 -0.040959254
-0.082672074 -0.063728616 0.0781763 0.113798104 -0.06872259 -0.11964276 -0.038413193 -0.04350625
-0.06795077 0.0020609072 0.090005554 0.03485013 -0.021679994 -0.04102036 -0.03184338 -0.037696313
0.03914175 -0.022101954 -0.0782932 0.055748545 -0.112677656 -0.06300797 -0.07272539 -0.004930535
0.10225594 -0.07227935 -0.069736116 -0.062199418 0.14106394 -0.05610353 -0.03579805 0.08093584
-0.0857859 0.03450599 0.055714656 -0.058284685 -0.076758996 -0.043483943 -0.059296712 -0.08260707
-0.0389948 -0.05707105 -0.037447706 0.013827348 0.1420828 0.10519088 -0.020335171 0.02039157

fc3.weight f4 [2, 300]
00000000: b151 76bc 10ee 99bd 8f6b 84bb d443 d6bd
00000010: d391 d938 0777 72bc a4dc 14be 30d1 aa3b
00000020: 2301 d7bd 4552 3ebc cd37 98bc 8a6f b13b
00000030: ac70 1e3c b05c be3b b182 88bc fe20 cdba
00000040: 17ff a739 ed22 fcbd 8567 15bd d4e9 e73b
00000050: 9d6b f7bd 2c6d 353c b4c5 74bc 4b5d 76bc
00000060: e26f f1bd 1830 02bd 80e2 cf3a 2c38 23bd
00000070: 31fb 073c 570d ccbb 772d c63b 4be6 5d3c
00000080: d438 dc3b 5eba 7fbc 3dc5 abbb f399 4abc
00000090: 588b 763c 7012 2ebc a120 58bb 080f c4bc
000000a0: 51d3 8e3b 1dfa 88bc 7bcb c5bb 5376 9ebd
000000b0: 1905 8b3b 1701 cbbb ea5b 84bd 9446 77bd
000000c0: c287 003c c8d3 e5bd 69d5 20bd 14d3 823b
000000d0: 0c94 033c ccfd b8bc 7989 8a3a d9ba 0e3c
000000e0: 878a 9bbc fb72 07bb 8b9a 193b 1d3d aa3b
000000f0: 8a3e 0abd af00 9f3b 34a3 02be 9843 0d3c
00000100: 97bf c1bb 9977 89bd 1fb7 cebd 75d1 adba
00000110: d3e0 c8bd d126 b4bd d86f e8bb 6fb1 acbd
00000120: 82b9 383c 46e9 583b 4e36 fb3b 3d3f cd3b
00000130: c095 abbb 94aa 84bd 1ced ac3b 6984 a63b
00000140: c756 b03b d193 0ebc 9c0f b0bd 0b53 133c
00000150: fc5c 44bc 9e6d a5bb c196 253b 0b4e ddbb
00000160: 8cb2 73bc 03e7 86bd 2020 ffbc b5c5 ed3b
00000170: 5003 47bc 6104 9fbb bbf4 f0bd 1dee 5abc
00000180: 53c7 ffbd ce4e c0bd 33f8 da3b a6d5 a1bd
00000190: f169 bbbd 175d bebd c0ef 283c eb8b 163c
000001a0: 1f4d 6fbc 34d0 59bc f31a b5bc adac 303c
000001b0: 44f6 b9bd fb9b c83b 91a6 013c 1fdf aabb
000001c0: 8cab 193c 63f2 c0bd be6e 24bd 82e7 8bbd
000001d0: 490b 9ebd e55e 0bbb d878 1e3c 1068 e3ba
000001e0: b329 913b dac2 e03b 4ad2 93bc a23e 14bc
000001f0: 5538 c33b c179 83bc c195 fbbb 7bbb f33b
00000200: 04ec 1abc a092 e03b c688 38bc fe98 f0bd
00000210: dc8d 13bd b5eb dabe bc2b 643c d2a1 bdbb
00000220: d1ad 98bc 1dc5 ed3b 2740 133c f371 313c
00000230: 81c0 bdbb da02 0c3c 65a9 07bd 55ab bf3b
00000240: 7cd5 67bc e3db 923b b8e8 20bc da3c 97bb
00000250: 6711 aebd 6aca 7ebb c062 e73b 9ffd 1f3c
00000260: d8b0 5abd d6fe cab9 c0cb 07bc a993 33bd
00000270: 3ffd 9e3b 71cb 8ebc 558c 7bbc d07c 6cbd
00000280: b3a8 403c ddcf 1f3c cf37 a33a 0ec6 beb8
00000290: 09a9 8d3b c3fb 80bc 19cf fc3a 0f80 ecbb
000002a0: ff04 7abc 2e36 173c d1f0 17bc d68f 333c
000002b0: 2014 b4bb 91c2 753b 2c40 0cbc 1ea2 3f3c
000002c0: 9caf 6dbc a704 40b9 17fb bf3a 439f dabe
000002d0: 26dd 24be ab83 e8b8 c2cf b2bd bcb3 90bb
000002e0: fe0c 193c 7011 623a ea7e 3abc 4206 773b
000002f0: 3f75 1c3c 0128 d8ba db5c 463b 2c85 27be
00000300: 2372 9e3b 02cf 92b9 e3e4 e63b 7e8f 6ebc
00000310: 54c2 d1bd fd87 5abc d8e3 403c e9d3 283c
00000320: a421 f0bb 21f1 bf3b 758f 003c 824d 9ebc
00000330: f255 92bc aecd 0abd 10d7 b83b a5c7 7fbc
00000340: 6ada ca3b 61ad 1dba 4200 07be b312 c9bc
00000350: 0ab0 2c3c 69fe 68bd ca0c 8dbc 1c7a 0b3c
00000360: bcd5 233b e053 9bbb 4618 d8bd a697 cbbd
00000370: 46ca c2bb 75b1 5a3a 794b 53bc c066 1c3c
00000380: 0867 bfbd 46e6 64bc 6269 97bc f6c8 fcbd
00000390: 7512 e8bb 09d7 a5bb cc02 38bb 1f83 f63b
000003a0: 24a9 d3bc 577c 17bc 971e 9bbc 00b5 173c
000003b0: 8a7e 00be 94ee d13b 154c cebb 311e 65bd
000003c0: 817e bf3b 3ab9 c5bb a412 d2be d156 0d3c
000003d0: be72 57bc e157 173c b75a f33b 6054 e5bb
000003e0: 5799 79bc d094 ed3b 4da0 1f3c bab9 c8bd
000003f0: b924 42bd 6f54 bbbd da55 c33b 817c 9cbc
-0.015034125 -0.0751611 -0.0040411423 -0.10462156 0.00010374528 -0.014798886 -0.14537293 0.0052129254
-0.10498264 -0.011616294 -0.018581295 0.005414908 0.009670418 0.005809389 -0.016663881 -0.0015650091
0.0003204278 -0.12311349 -0.036475677 0.007077435 -0.120810725 0.011073392 -0.014939714 -0.015036891
-0.11788918 -0.031784147 0.0015860349 -0.03984849 0.008299635 -0.006227176 0.0060479003 0.013543676
0.0067206416 -0.015608398 -0.0052420185 -0.012365806 0.015047871 -0.010624513 -0.0032978433 -0.023932949
0.004358687 -0.016720826 -0.0060362197 -0.07737412 0.004242551 -0.0061951983 -0.06462844 -0.060370043
0.007844867 -0.11222035 -0.039266024 0.0039924476 0.008030903 -0.022581957 0.0010569534 0.00871154
-0.018986953 -0.00206679 0.0023438062 0.0051952736 -0.03375105 0.0048523764 -0.1275757 0.008622073
-0.005912732 -0.067122646 -0.10093521 -0.0013261276 -0.09808507 -0.08796466 -0.007093411 -0.0843228
0.011274697 0.0033098026 0.0076663857 0.006263642 -0.0052363575 -0.06477848 0.005277289 0.0050817025
0.0053814384 -0.008702234 -0.08596727 0.008991967 -0.01198506 -0.005048468 0.0025266858 -0.006753688
-0.014874112 -0.06587031 -0.031143248 0.0072562345 -0.012146786 -0.004852817 -0.11765429 -0.013362435
-0.1248919 -0.09390031 0.0066824197 -0.07902078 -0.09151066 -0.09295099 0.010311067 0.0091886325
-0.014605789 -0.013294268 -0.022107577 0.010783357 -0.090801746 0.00612211 0.007913248 -0.0052145864
0.009379279 -0.094212316 -0.040144674 -0.06831266 -0.07716996 -0.0021266278 0.009672366 -0.0017349739
0.0044300198 0.0068591656 -0.01804461 -0.009048136 0.005957643 -0.016049268 -0.007677764 0.007438121
-0.009455685 0.0068534166 -0.011263078 -0.11747931 -0.03602396 -0.42757955 0.013926443 -0.0057871128
-0.01863757 0.0072561637 0.008987463 0.01083039 -0.0057907705 0.008545602 -0.03312053 0.005849282
-0.01415002 0.004481779 -0.0098211095 -0.0046154084 -0.08499413 -0.0038877972 0.0070613325 0.009765058
-0.053391308 -0.0003871831 -0.008288324 -0.04384199 0.0048519666 -0.017430993 -0.015353282 -0.057736218
0.011758971 0.009754148 0.0012452545 -9.0967966e-05 0.004323129 -0.01574505 0.0019287794 -0.007217414
-0.01525998 0.009229226 -0.009273724 0.010959586 -0.005495563 0.0037500004 -0.008560222 0.011696367
-0.014507201 -0.0001831228 0.0014646974 -0.42699632 -0.16099986 -0.00011087147 -0.08731033 -0.0044159573
0.0093414765 0.0008623814 -0.011382798 0.003769294 0.009549438 -0.0016491414 0.0030267749 -0.16359395
0.0048353835 -0.00028001523 0.0070463284 -0.014560578 -0.10242143 -0.013338086 0.011773072 0.01030443
-0.007328229 0.005857602 0.007846703 -0.019324068 -0.017863248 -0.033887558 0.005640872 -0.015611564
0.0061905878 -0.000601491 -0.13183692 -0.02454505 0.010540018 -0.05688325 -0.017218012 0.008513
0.0024999222 -0.0047402233 -0.10551505 -0.09941034 -0.005944523 0.0008342483 -0.012896412 0.009545982
-0.093458235 -0.013970917 -0.018482868 -0.12343018 -0.0070822784 -0.0050610346 -0.002807784 0.007522955
-0.025837488 -0.0092459535 -0.018935485 0.009259462 -0.12548271 0.0064066146 -0.006295691 -0.055936996
0.005843938 -0.0060340436 -0.41029847 0.008626656 -0.013149915 0.009237261 0.0074265855 -0.0069985837
-0.015234313 0.007250406 0.0097428085 -0.098010495 -0.047398303 -0.09146964 0.005961162 -0.019102337

fc3.bias f4 [2]
00000000: 2bbb b3bc 25bd 9dbd
-0.021939835 -0.07702092
